pro_number/LeNet.params (torch, 249799 bytes, 10 tensors)

0.weight f4 [6, 1, 5, 5]
000000 f0 10 61 3f 34 a3 48 3f b7 89 dc bd 85 ff 07 be
       0.8791647 0.7837403 -0.107684545 -0.13281067
000010 1a 08 85 3e b7 32 6c 3f f5 58 2b 3f 49 84 bf 3c
       0.25982744 0.92264885 0.6693261 0.023378508
000020 a5 95 10 be e9 24 fe 3e 00 1d 74 3e 2c 77 0c 3f
       -0.14119585 0.49637535 0.23839188 0.5486934
000030 74 a5 59 bd bc 98 32 3e 08 64 0d 3f cd 44 84 bd
       -0.053136304 0.17441076 0.5523076 -0.06458435
000040 8c 87 fd 3d f6 4f ef be d0 46 04 3e ed 69 17 3f
       0.12379369 -0.46740693 0.12917638 0.59146005
000050 a7 41 6f bf 01 ef 64 bf 51 de 66 bf ef 12 58 bf
       -0.9345955 -0.8942719 -0.9018298 -0.8440389
000060 5d 2c 84 bf 00 a9 8d be 5f 3e 68 3f 37 8a 44 3f
       -1.0326039 -0.27668 0.9072017 0.767734
000070 b9 36 f0 3e 4c 3e 57 3f 16 dd 32 be d6 52 9b 3e
       0.4691675 0.8407943 -0.1746715 0.30336636
000080 ee b9 d6 3e 6d 19 51 3f 42 b3 2f 3f 56 d4 8d 3e
       0.41938728 0.8167942 0.686329 0.27701062
000090 1d a7 09 3f 1d 6a 22 3f 41 6a 04 3f d0 72 c0 be
       0.5377062 0.63443166 0.5172463 -0.37587595
0000a0 ab 94 34 3d 43 5e 27 3e b9 61 dc bd 48 3b 6d bd
       0.044087093 0.16344552 -0.107608266 -0.057917863
0000b0 2f 1c 37 bf 74 a1 4c bf c1 46 9c bf 5c 05 8e bf
       -0.7152738 -0.7993386 -1.2209092 -1.1095386
0000c0 b9 32 51 bf ff b9 3a bf 5b 5c bc 3e 71 58 2d 3d
       -0.8171802 -0.7294006 0.36789212 0.042320672
0000d0 40 70 8d bf f7 4e a2 bf 62 32 16 bf c5 a9 c5 bd
       -1.1049881 -1.2680348 -0.5867063 -0.096515216
0000e0 34 5d ff be 7f f6 5a bf c8 20 9f 3e 45 5f 28 3f
       -0.49875796 -0.85532373 0.31079698 0.6577037
0000f0 a1 88 99 3d 05 3d 95 bf b5 b5 ce bd d2 97 eb 3d
       0.07496763 -1.1659247 -0.100932516 0.11503567
000100 b2 b3 72 3e b2 d0 01 bd 47 40 3a bf c8 1b 3b 3e
       0.23701361 -0.031693168 -0.7275433 0.18272316
000110 2b e9 ea bd 67 9d 08 3e b3 9b 9e bf 75 21 29 bf
       -0.114702545 0.13341294 -1.2391266 -0.66066676
000120 02 c4 75 3e 9a fe 46 3d 72 48 d4 3e 1f 00 bb 3e
       0.24000552 0.04858265 0.4146152 0.3652353
000130 ee 66 a8 bf 6a cd a6 be 5b 7d 34 3d 5b 90 07 be
       -1.3156412 -0.32578593 0.04406486 -0.13238661
000140 80 2c f8 bd 3d 99 92 bf 09 52 ff 3d 20 2b 2c 3d
       -0.12117863 -1.1453015 0.12466819 0.042033315
000150 84 73 ea bd 8c b9 76 be 36 f6 a4 bf ad bd af 3e
       -0.11447814 -0.24094218 -1.2887638 0.343244
000160 a7 e4 c4 bc aa d4 27 3e 3f 31 4e bf 4f 87 79 bf
       -0.024034811 0.16389719 -0.80543894 -0.9747209
000170 c7 5b b4 bd 9e ec be 3e b2 e1 9f 3f 4d a7 9a bf
       -0.08806568 0.372899 1.2490752 -1.2082306
000180 da ca c5 be 71 a1 e7 3d f4 30 af bd 27 50 f8 bd
       -0.38631326 0.113100894 -0.08554259 -0.12124663
000190 15 1e 74 3e ed 3a 87 bc 02 c9 b1 3d d8 71 b1 bc
       0.238396 -0.01650759 0.08680917 -0.02166073
0001a0 47 66 60 3e 45 f2 96 3e 4b b6 7d bb 23 48 6a 3e
       0.21914016 0.29481712 -0.0038713391 0.2287908
0001b0 c3 e4 32 3e 5a 78 d1 3d 00 bb f3 3e 89 28 a8 3b
       0.17470078 0.10228033 0.47603607 0.0051317853
0001c0 b9 74 1a 3f fa c8 85 3e 04 8d 8b 3e 0e e6 89 bf
       0.60334355 0.26129895 0.27256024 -1.0773332
0001d0 ab b9 17 3e c7 97 43 3d 19 06 9d 3e 3f 9f 53 3e
       0.1481692 0.047752168 0.30668715 0.20666216
0001e0 70 e6 b0 bf 62 f8 96 bf 83 a9 a3 bf d2 dc 8a bf
       -1.3820324 -1.179455 -1.2786106 -1.0848639
0001f0 08 0f 02 c0 37 a7 67 bf be 31 33 bf 3a 3e a4 be
       -2.0321674 -0.90489525 -0.69997776 -0.32078725
000200 9b 3f 97 be 98 14 60 bf b1 d6 07 bf da 73 ab 3e
       -0.29540715 -0.87531424 -0.5306197 0.33486825
000210 13 d0 03 be 74 5b c9 3d aa 7d 3c be 1f 40 65 3e
       -0.12872343 0.098318964 -0.18407312 0.22387742
000220 6e c5 42 3f 3e 06 e1 3e da 97 9d 3e 54 4f fe 3e
       0.76082504 0.43950075 0.30779916 0.49669898
000230 29 a9 52 3f 2a a5 5b 3f 9b b4 54 3f 81 15 eb 3e
       0.8228937 0.85798895 0.8308808 0.45914844
000240 e1 b3 87 3f 26 3d 39 be e5 62 d8 be ed 7b 23 be
       1.060177 -0.18089733 -0.4226295 -0.15965243
000250 cb c6 e1 be 1d 2f 5a be
       -0.4409698 -0.21307035

0.bias f4 [6]
000000 47 9e ac bf e2 66 e4 3e 28 b5 4c 3e 34 df 20 3f
       -1.3485802 0.44609743 0.1999098 0.6284058
000010 4c 42 6f bf fa a6 b9 be
       -0.93460536 -0.36260206

3.weight f4 [16, 6, 5, 5]
000000 9a 8d 7a be 4b 93 4c bd 87 f7 f2 3d 05 e7 42 3e
       -0.24468079 -0.049945157 0.11863618 0.1903344
000010 2d b0 f2 3e ec 64 82 be d6 40 07 3d de ce 08 3e
       0.47400036 -0.25467622 0.033020817 0.13360164
000020 7b 15 81 3e 70 83 22 3e 04 34 d1 bc b8 11 c9 bd
       0.252117 0.15870452 -0.025537498 -0.09817833
000030 8a 12 51 3d 7b d1 3e bd ef 73 a2 be 9a f5 72 3e
       0.05104307 -0.046586495 -0.31729075 0.23726502
000040 fb 73 ca bc 8a 0f 31 be 3b d0 61 be a7 9c 9e be
       -0.024713507 -0.17291084 -0.2205209 -0.3097889
000050 e2 fd 28 3d 02 fb db 3d bc ee 84 3d 82 0e a1 3c
       0.041257747 0.10741235 0.064908475 0.019660238
000060 56 06 2e 3d 1a 53 cc be 13 59 7a be c3 9b 84 3d
       0.04248651 -0.3990715 -0.24448042 0.06475022
000070 d7 20 99 3e 9e 5a 97 3e 3c 4f 16 be 95 06 2f be
       0.29907867 0.29561323 -0.14678663 -0.17092355
000080 0f 19 3a bc ae c0 9a bd f8 96 57 bd 3e 64 51 3e
       -0.0113585135 -0.07556282 -0.05263421 0.20448396
000090 40 5a 04 bd cb d0 f5 be f9 20 dd be b0 31 b2 be
       -0.03231263 -0.4801086 -0.4318922 -0.34803534
0000a0 4c d7 b7 3e df 84 06 be 73 1e e3 be 79 07 19 bf
       0.35906446 -0.13136624 -0.44359168 -0.5977703
0000b0 45 ff de be 4f b0 0a 3e b3 c8 9e 3c d3 6f 23 bd
       -0.4355413 0.13543819 0.01938281 -0.039901566
0000c0 2e 61 82 be 32 b2 b3 bd 88 f7 51 3e 08 f3 c6 3e
       -0.25464767 -0.087742224 0.20504582 0.38857293
0000d0 91 ff 48 3e e5 d5 46 3e af fb 02 be dd 75 8b 3d
       0.19628741 0.19417532 -0.12791322 0.0680959
0000e0 4b 06 05 3e fc d7 68 3d ae 04 bd bd e9 51 5a 3d
       0.12990682 0.056846604 -0.09229408 0.05330077
0000f0 06 b2 3b bd 26 34 87 be f0 ab 29 be ea f5 00 3c
       -0.045824073 -0.26406974 -0.16569495 0.0078711305
000100 04 70 7c 3e da 85 a0 be c2 92 70 be 2a 81 b8 be
       0.24652106 -0.3135212 -0.23493484 -0.36036044
000110 57 84 21 be a1 7b de 3d fa 60 73 be 12 c8 88 be
       -0.1577314 0.10863424 -0.23767462 -0.26715142
000120 a5 de 98 be 65 ec f6 bd 24 6b b8 bd c8 75 89 3e
       -0.29857364 -0.120568074 -0.090048105 0.26847672
000130 45 6f e7 3d 45 0c 59 3e db 85 8a 3c ed 03 b2 be
       0.1130052 0.21196087 0.01690953 -0.3476862
000140 af 8b d5 3d e8 87 a3 bd 44 7b 7e be a0 82 8b be
       0.10427033 -0.079849064 -0.2485171 -0.27248096
000150 20 b8 65 be e9 25 10 3e 7d af 27 3d ae 6a be bd
       -0.2243352 0.14076962 0.040938843 -0.09297691
000160 42 38 12 be ca 11 6e bd 50 ca 73 3d 22 7f be 3d
       -0.14279273 -0.058122434 0.059519112 0.093015924
000170 07 38 1e bd 25 7f 1c be c8 57 b1 3d 6a ed c0 3d
       -0.03862765 -0.15282877 0.08659321 0.09420283
000180 b1 c7 2e 3e e1 c1 94 3d 21 10 e2 bc 72 da e9 3d
       0.17068364 0.07263542 -0.027595581 0.11418618
000190 17 d8 bf be 0b 16 36 be 03 d5 91 3e 8e 3a 0c 3f
       -0.3746955 -0.17781846 0.28482828 0.5477685
0001a0 66 ae fa 3e 93 b9 b3 be 74 f5 80 bd d9 e6 4b 3e
       0.4896118 -0.3510252 -0.062968165 0.1991228
0001b0 16 40 02 3f 2a 8f e7 3e 47 aa 9a be 82 38 b4 be
       0.5087904 0.45226413 -0.30208036 -0.35199362
0001c0 b0 c9 a5 be 52 97 57 be 6e 0b 4d be 96 f5 be bc
       -0.32380438 -0.21053818 -0.20023891 -0.023310464
0001d0 6a b0 8f be 27 4a 05 bf 88 ed 30 bf 27 4f 02 bf
       -0.2806428 -0.5206627 -0.69112444 -0.50902027
0001e0 9a 19 2a 3c 7d af 1b be 87 7e dd be ef 09 c0 be
       0.01038208 -0.15203662 -0.43260595 -0.3750758
0001f0 af 0b 90 be 3b ff 84 3d 63 91 27 3d 38 71 8c bb
       -0.28133914 0.06493994 0.040910136 -0.0042859577
000200 4c dc 40 be 5d 79 2e be a7 15 21 3e aa 5d 90 3d
       -0.18834037 -0.17038484 0.15730916 0.07049115
000210 50 69 98 be 7e 93 04 bf 0f 32 1d bf 62 95 e5 3e
       -0.29767847 -0.51787555 -0.6140451 0.44840533
000220 e1 2a ac 3e aa 09 2d 3e db b0 4c be a5 d6 9d be
       0.33626464 0.16898218 -0.1998934 -0.30827823
000230 6f 89 55 3e 08 42 bf 3e 6c 61 e1 3e 36 c5 e7 3d
       0.20853208 0.37355065 0.4401964 0.11316912
000240 8e 98 38 3e e8 c9 3c 3d d4 8a eb 3e eb e5 05 3f
       0.18026945 0.04609099 0.46004355 0.5230395
000250 47 5d fb 3e 50 27 0d 3e f4 39 3d be c2 e6 c3 be
       0.49094602 0.13784528 -0.18479139 -0.38261992
000260 db 97 a5 be 9e b3 6f be c2 61 dd bc 92 5a 83 be
       -0.3234242 -0.23408362 -0.027024154 -0.25655037
000270 8c e2 f0 be c8 5d 8f be ad 24 75 bd 2a 6b 10 bd
       -0.47047842 -0.28001237 -0.05984943 -0.03525845
000280 d4 fa 5f be e3 a6 96 be 12 33 44 bd 3e 4f 18 3e
       -0.21873027 -0.294242 -0.047900267 0.14873978
000290 e3 83 72 3e fa b0 5c 3e ad 42 9f 3d ff f7 9c 3e
       0.23683123 0.21551886 0.07776389 0.30657956
0002a0 f0 2e 9f 3e cf ab de 3d 84 74 3a 3e 69 1b c1 3d
       0.31090498 0.10872614 0.1820851 0.09429056
0002b0 ba 83 73 bc 20 7b ce bc a9 99 e7 ba 1a af 06 be
       -0.014862949 -0.025205195 -0.0017669696 -0.13152733
0002c0 e2 9a 51 3d b0 08 e2 3d 3e 30 7f bd 83 57 e8 bd
       0.0511731 0.11036813 -0.062301867 -0.113448165
0002d0 4e c5 3b be c3 a6 c5 bd fa 54 1e 3e be 56 2c 3e
       -0.18336985 -0.09650948 0.15462103 0.16829965
0002e0 38 a0 bb 3a ce 76 f9 bd 2f 31 76 3d 17 d2 ca 3e
       0.0014314717 -0.12180863 0.0601055 0.3961341
0002f0 16 22 45 3e f2 60 14 bd 4a 02 4a 3e c7 3f 0f 3f
       0.19251284 -0.036225267 0.19727436 0.5595669
000300 f7 a1 b6 3e fd 67 ca 3d 05 5e 19 bd 99 b8 83 3e
       0.35670444 0.098831154 -0.03744318 0.25726774
000310 5b b4 92 3e bf 5e d6 3a d7 ac 83 3d ba 5d 75 3c
       0.28653225 0.0016355141 0.06429451 0.014975959
000320 37 95 e4 3d ab ba 1c 3d a5 40 c7 bd 71 df 21 bd
       0.11161273 0.038263958 -0.09729127 -0.03951973
000330 12 10 8c bd 5b 6c 4e bd d6 7c 66 be cf 2f e0 be
       -0.06839003 -0.050396305 -0.22508559 -0.43786475
000340 2d 38 7c be 53 42 e0 bd 7b 19 8a be de a2 01 bf
       -0.24630804 -0.1095015 -0.26972565 -0.5063914
000350 ac dc 1b bf 09 bd 11 bf 37 b3 a9 be 52 16 a8 be
       -0.60883594 -0.5692907 -0.33144543 -0.3282953
000360 f9 b0 53 be 0f 46 51 be 18 e4 dc be 87 23 09 bf
       -0.20672978 -0.20436881 -0.43142772 -0.53569835
000370 3c 14 a4 bd cd 94 77 3d 08 34 7c 3d e9 ca 02 be
       -0.08011672 0.06044464 0.06157306 -0.12772717
000380 c3 13 0a be f9 74 11 3e d4 be 21 3e f6 22 8d 3e
       -0.13484101 0.14204778 0.15795451 0.27565736
000390 c1 12 87 3d 5d 9b 50 bb 03 ce e5 bd 1e 53 34 3d
       0.06595374 -0.0031830885 -0.11220934 0.04402458
0003a0 e5 57 06 be be e1 98 be 31 64 22 be 52 a8 c4 be
       -0.13119467 -0.29859728 -0.15858532 -0.38409668
0003b0 ed 36 ea be 6e 1f 07 bf 2b ea c1 be 29 04 e8 be
       -0.4574503 -0.5278233 -0.37873968 -0.45315674
0003c0 d0 57 e3 bd 85 25 75 be 2d 4d d1 bd 50 f0 83 be
       -0.11100733 -0.23940094 -0.10219798 -0.2576928
0003d0 c4 ff a0 be 95 48 09 bd 28 19 a5 3d 95 31 55 3d
       -0.31445134 -0.033516485 0.08061439 0.05204924
0003e0 ab fa 28 bd 40 3e 84 bd 05 a9 fc bd c9 bd 99 be
       -0.04125468 -0.06457186 -0.123369254 -0.30027607
0003f0 40 89 c8 be ab e3 36 be 8d 55 83 be 95 57 1b bd
       -0.39167213 -0.17860286 -0.25651208 -0.03792532

3.bias f4 [16]
000000 07 85 99 bd 20 a9 e9 bd 40 48 0d 3c 3a b2 8b 3d
       -0.07496076 -0.11409211 0.008623183 0.068211034
000010 92 62 36 be 28 47 b8 bd 49 7b d8 bc b3 8a bd 3d
       -0.17811039 -0.08997947 -0.026425974 0.092549704
000020 5f 47 9f bc 3c 40 67 be 35 bb 99 be 03 4d 30 be
       -0.019443212 -0.22583097 -0.3002564 -0.17216878
000030 ac 48 07 be f1 5b 8f be aa f6 c3 bd 58 3b 89 3e
       -0.13211316 -0.27999833 -0.09568532 0.26803088

7.weight f4 [120, 400]
000000 a2 8f 42 bd 4c 3b 95 3a 66 12 78 3c 26 9a 11 3e
       -0.04750026 0.001138547 0.015141105 0.14218959
000010 0b f7 de 3d aa fa 4e 3c 48 da eb 3c 79 00 30 be
       0.108869635 0.012633005 0.028790608 -0.1718768
000020 f6 8e 66 3d 07 0a 04 be c7 be 14 3c 06 58 c0 3c
       0.056288682 -0.1289445 0.009078688 0.023479473
000030 c0 56 01 bd 89 1f b0 3b 59 c3 94 3d 56 10 fa 3b
       -0.031576872 0.005374853 0.07263822 0.007631342
000040 dc b6 a6 3d 30 98 a4 3d 7d e0 84 3d e6 97 d2 3b
       0.081403464 0.0803684 0.0648813 0.006426799
000050 bc 7a 96 3d 3a 53 15 3c 81 fc 4b bc d3 ce 91 bc
       0.073476285 0.009114081 -0.012450338 -0.017798817
000060 52 c7 e1 bc db a6 07 3e 15 75 9d bd 29 8a 57 bd
       -0.027560864 0.13247244 -0.07688347 -0.052621994
000070 2f 09 5f bd c3 c5 88 3d 97 52 c4 3d f4 b3 d6 3d
       -0.054452118 0.06678345 0.09586065 0.10483542
000080 bf ae 1a 3e 3e 61 b8 3d 9f 50 0c 3d 60 3e 10 be
       0.15105723 0.090029225 0.034256574 -0.14086294
000090 ad 89 80 be 50 d5 ce 3c fb 37 f0 3b 9b 14 a6 3d
       -0.25105038 0.0252482 0.007330892 0.08109399
0000a0 fe 37 b3 bd 10 f1 2b be dc 36 16 3c ef 6f e0 bc
       -0.08750914 -0.16791177 0.009168353 -0.027397124
0000b0 75 9e 90 bd c2 60 df 3c e8 5c 81 3d 24 7f 05 3e
       -0.07061473 0.027267817 0.063165486 0.13036782
0000c0 9c e9 38 3d 3a ab 97 bd f4 56 ed 3d 74 e4 47 bd
       0.045144662 -0.07405706 0.115888506 -0.048801854
0000d0 d7 ce 55 3d 84 c8 d4 bd eb 47 d7 bd 0d 6f 0e bd
       0.05219921 -0.10389808 -0.10511764 -0.034773875
0000e0 be ed 01 be 9a 7a 93 3d 4e 59 a6 bd d7 32 b1 3d
       -0.12688348 0.07201119 -0.08122502 0.08652275
0000f0 0e a8 3d bd a7 e7 bd bd 78 d5 16 bd 24 8d 6e bc
       -0.046302848 -0.092727 -0.036824673 -0.014560018
000100 b7 c6 80 bd 75 37 a9 bd 91 f0 d3 bd 2f 1d 07 3e
       -0.06287902 -0.08262531 -0.10348619 0.13194726
000110 f7 e4 a5 3c fa 4d 25 bd 97 6e 0a bc 97 bc da bc
       0.02025078 -0.040357567 -0.008449218 -0.026701255
000120 61 e1 11 3e 27 43 92 3d 67 03 be bc 54 a2 40 bc
       0.14246131 0.071417145 -0.023194982 -0.011757452
000130 ae 06 d2 3c a8 ed b7 3d f7 a7 59 bc e4 84 c6 bb
       0.02563795 0.08980876 -0.013284675 -0.0060583223
000140 b7 b6 5c 3d 91 d5 6b 3e 2a 64 22 bd 82 3f 40 bd
       0.053885188 0.23030688 -0.039646305 -0.046935566
000150 48 4b 03 be f2 7d 0e 3e ec 0c 59 3e eb 81 bc 3c
       -0.12821686 0.13915232 0.21196336 0.023011168
000160 e8 20 8d bd 5a fd 57 3d 2e b3 6c 3c a6 30 82 3b
       -0.06891042 0.05273185 0.014447017 0.0039730845
000170 77 32 ab bc 54 02 21 bd 0a b1 d8 3d 9c ca 11 3d
       -0.020898087 -0.03930886 0.105806425 0.035593614
000180 a2 e7 e3 3c 12 01 c1 3d 8d b6 0c bd de 63 c4 bc
       0.027820412 0.09424032 -0.03435378 -0.023973402
000190 d8 6b 10 bd 30 4e 73 3d 0f fe 70 3b f6 f7 b8 3c
       -0.035259098 0.059400737 0.0036772524 0.022579174
0001a0 f0 5b 94 3c 1a 58 de bd aa 05 15 bd 7c cb 5e bc
       0.018110245 -0.10856648 -0.036382355 -0.013598319
0001b0 ff 7c 3d 3c b8 08 e3 3d 95 9b 54 bd d2 91 2a 3d
       0.011565446 0.11085647 -0.051906187 0.04164297
0001c0 f4 55 0b be 8b 56 e3 3d 01 1b b1 3c 7c 9d 21 be
       -0.13607007 0.11100491 0.021619322 -0.15782732
0001d0 0c 63 02 3e af 27 65 bd 67 38 bb bc a3 be 7f 3d
       0.12733096 -0.05594605 -0.022854043 0.062437665
0001e0 1d ec f5 3c 62 c6 98 3d 57 66 b4 3b 39 1a 0e bd
       0.030019814 0.074597135 0.005505364 -0.034692977
0001f0 34 0d 10 3e c6 1b ac 3d d0 8c 1b 3c e4 bc ad 3b
       0.14067537 0.08403735 0.009494022 0.0053020585
000200 e1 b7 c5 3d bb f4 8a 3d eb 4a 8e 3d ef df 09 3e
       0.09654213 0.0678496 0.06947883 0.1346433
000210 e0 7c 8d 3c e8 8d d6 3d 77 6d 00 bc d2 c1 22 3e
       0.01727146 0.10476285 -0.007838598 0.15894249
000220 53 ed ec 3d 36 7c 1a bd 1f d6 59 bd cd 5c 10 3e
       0.115687035 -0.037716113 -0.053182717 0.140979
000230 d9 95 13 bb 23 91 4c 3e b3 de 54 3e ea f7 04 bd
       -0.0022519736 0.1997724 0.20788078 -0.03246299
000240 15 d4 bd bd 45 7a 88 3c 84 a5 cc 3d 47 45 60 bd
       -0.09268967 0.016659865 0.09992507 -0.054753568
000250 48 de d6 bd 11 90 44 bc 24 81 7a bd 61 dc 78 bd
       -0.104916155 -0.011997239 -0.061158314 -0.060757045
000260 ed fc 15 bd c0 55 63 3d 7c 3b e5 bd 72 35 89 ba
       -0.036618162 0.0555017 -0.11192986 -0.0010468198
000270 bb d1 e7 3d fd 87 88 3d 9a 4a 08 bd 37 a7 f1 bd
       0.113193 0.06666563 -0.03327427 -0.11799472
000280 f8 79 9c bd 58 08 2b be f0 10 57 be 3e 88 dc bc
       -0.07640451 -0.16702402 -0.21002555 -0.026920434
000290 e1 7b f0 3c 43 3c ec bd 8b 57 9d be 91 70 4e be
       0.029355945 -0.115349315 -0.30730852 -0.20160128
0002a0 c6 1c 8b 3c 27 75 3a bc f0 50 bb 3c 07 a1 87 bd
       0.016981494 -0.01138047 0.022865742 -0.066225104
0002b0 c4 92 d1 3d 26 19 d0 3d 6a ba 78 3d 8d 2c f1 3d
       0.102330714 0.10161047 0.060724653 0.117760755
0002c0 71 70 95 3d 9f e7 69 bd bb 03 7d bc 57 a4 3a 3c
       0.07296837 -0.057105657 -0.015442784 0.011391721
0002d0 31 1c 2b 3e b5 67 a0 3d 57 76 e0 3d 39 66 33 bd
       0.16709973 0.078322805 0.109600715 -0.04379866
0002e0 e2 45 04 be fc 87 22 be 27 8c 9c be 0c 75 b5 bd
       -0.12917283 -0.15872186 -0.30575678 -0.088602155
0002f0 ce ca 18 3e a0 73 3e 3b b7 bc 1e 3c 7d 8c 19 be
       0.14921114 0.0029060617 0.009688548 -0.14994998
000300 e4 c3 7a bd 10 ef ad 3c d6 0e d0 3d 87 68 06 bd
       -0.061221972 0.021232158 0.1015908 -0.03281453
000310 0e 15 63 bc fb 32 1b 3d 6c a0 cc bc 3c b9 11 be
       -0.01386 0.037890416 -0.024978839 -0.14230818
000320 bd b0 88 3c 40 de 13 3d 65 57 e3 bc 0a 93 a3 bb
       0.016685838 0.036100626 -0.027751634 -0.0049918937
000330 e5 16 a7 3d c2 18 b3 bd a1 2c ca bd c2 f1 5e 3e
       0.08158664 -0.087449566 -0.098717935 0.21771911
000340 9b f7 fd bb 8c 34 20 bd 0b ff 31 3d 36 1c 8d 3d
       -0.007750464 -0.039112613 0.04345612 0.068901464
000350 e0 e4 06 be ff 3c d2 3d 09 0c 86 3c 55 fc 3b be
       -0.13173246 0.1026554 0.01636316 -0.18357976
000360 a4 2d 28 3a e5 60 86 bd 67 07 a9 3c c6 ec e0 3d
       0.00064154924 -0.0656145 0.020633413 0.10982661
000370 78 0c 33 bd b4 cf 8a bd 91 50 be 3d 04 f9 08 be
       -0.043713063 -0.067778975 0.092927106 -0.13376242
000380 75 15 2f 3c 60 b6 40 be fc 77 90 be 13 0e b8 bc
       0.010686268 -0.1881957 -0.2821654 -0.022467649
000390 12 4c 35 bd 20 5d e5 3d 14 50 2b be 0d 05 75 ba
       -0.044262 0.11199403 -0.16729766 -0.0009346761
0003a0 50 1e b9 3c 76 18 08 3d 34 53 16 3d 6a 15 0c be
       0.022597462 0.033226453 0.036700442 -0.13680044
0003b0 1c cb f5 3d 8c f9 7d 3e 0d 35 c1 3d 53 b1 64 bd
       0.12001631 0.24802226 0.09433947 -0.055833172
0003c0 f3 0b ae 3d f7 77 e7 3d 59 64 9d bc 3d e1 3e bb
       0.08498373 0.11302178 -0.019212889 -0.0029125952
0003d0 7c d7 da 3d 19 c6 4a bd 66 72 91 bc 8f a5 6a bd
       0.10685632 -0.049505327 -0.017754745 -0.057286795
0003e0 07 f4 ca 3d 67 08 4b 3e e7 d1 92 bd 25 69 64 be
       0.09909826 0.19827424 -0.07168942 -0.22305734
0003f0 ea 00 03 be bd da c6 3d 70 a9 c0 3d 96 15 07 be
       -0.12793317 0.0970969 0.09407318 -0.13191828

7.bias f4 [120]
000000 3a 06 22 3d 65 20 cf 3c a6 59 0e ba 3b 89 1b bd
       0.03955672 0.025284002 -0.0005430229 -0.03797267
000010 51 c8 14 3d 3d a5 92 bd b8 f9 bb 3c ae 0c c0 bc
       0.03632385 -0.07160423 0.022946224 -0.023443546
000020 35 e8 1b bc 55 c2 a5 bc cc 4d 0a bd d2 03 66 3c
       -0.009515812 -0.020234266 -0.0337656 0.014038997
000030 61 6a 0e bb 7a 0c 43 bd fb c2 cd bb 8a 25 35 bc
       -0.0021730887 -0.04761932 -0.006279347 -0.011056313
000040 3a da c2 3c 0a 57 93 3c 06 dc c5 bc 4a 6a fd bc
       0.0237857 0.01798584 -0.024152767 -0.030934472
000050 66 a3 3e 3d 1a ce 47 3d e6 13 bc 3c 6e 07 8d 3d
       0.046542548 0.04878054 0.022958707 0.06886183
000060 63 ef 33 3d 0c 3b da bc d7 18 97 3d d1 82 ce bc
       0.04392947 -0.026639484 0.07377785 -0.025208862
000070 e8 6d 20 bd b8 6d ea bc 30 38 7e bb aa 54 4a bd
       -0.039167315 -0.028616771 -0.0038790815 -0.04939715
000080 26 3f 66 bc 37 5b b8 3c be 76 ed 3c 0c 9b a4 bc
       -0.014053142 0.022504432 0.028987285 -0.020093463
000090 c3 0b 00 3d d6 d1 59 bc 29 e0 34 bd d2 17 ec 3c
       0.031261217 -0.013294658 -0.04415909 0.028819952
0000a0 71 49 01 bd 13 1a 1f bc f6 18 9e 3b e6 49 45 bc
       -0.03156418 -0.009710806 0.004824753 -0.012041545
0000b0 3c a5 06 bd a3 79 5f bd 5a d7 a9 bd eb 5e bb 3c
       -0.032872424 -0.05455936 -0.08293028 0.022872409
0000c0 17 9b 60 bd 22 58 44 3d 32 ee 74 bd 63 27 b5 bd
       -0.054835405 0.047935612 -0.059797473 -0.08845403
0000d0 36 82 84 bd 99 6c 1a ba a1 96 32 3d aa e4 c2 bc
       -0.06470148 -0.0005890816 0.043600682 -0.023790676
0000e0 c8 40 84 3c a5 a7 78 bc 3b 7b b6 bb 22 c0 f7 bc
       0.016144171 -0.015176688 -0.0055688894 -0.030242983
0000f0 a1 0e 22 bc 9f da 40 3d b0 12 ef bc c4 11 b6 bb
       -0.009891183 0.047083493 -0.029183716 -0.005556317
000100 6c 0d 16 bc 7f 7c cc bc 64 bd ac 3c 74 eb 8d bc
       -0.009158473 -0.024961708 0.021086402 -0.017324187
000110 e0 5f 52 bd ec db b5 3d f2 75 79 3c 04 d1 43 bb
       -0.051360965 0.088798374 0.015225874 -0.0029879222
000120 20 96 e9 bc 1a e5 6e b9 d3 ca 49 bd a0 f6 e5 bc
       -0.028513968 -0.00022782796 -0.049265694 -0.028071702
000130 a1 e9 e1 bc e1 47 27 bc 63 5b f6 bc d8 b3 19 bd
       -0.027577223 -0.010210008 -0.030072873 -0.037525028
000140 3f af c3 3d ce b5 67 bd 97 15 06 bd 41 2e 8a bd
       0.0955491 -0.056569867 -0.032735433 -0.067471035
000150 44 c2 1a bd 82 0b 95 bd d0 2f 46 3b 82 81 4f 3d
       -0.037782922 -0.072775856 0.00302409 0.050660618
000160 95 e9 ab bd 73 31 c8 bb 94 0c 18 3d 9f 98 f1 3c
       -0.083941616 -0.0061094104 0.03712137 0.02949172
000170 41 af 6f 3b 89 ca 12 bd 0a 8a 07 bd 2e bb 5e bd
       0.0036572965 -0.035837684 -0.03309063 -0.054377727
000180 f9 4a 16 3d 90 89 a1 bd d7 00 2e bd b9 ab 98 bc
       0.036692593 -0.07887566 -0.04248127 -0.018636571
000190 45 66 a3 3c ad b4 f5 3c 9a 16 41 bd ca 9b 4e bc
       0.019946227 0.02999338 -0.047140695 -0.012610385
0001a0 dc 7d 16 bd 57 63 96 bd 33 bc 50 3c c3 4f 48 39
       -0.036741123 -0.07343166 0.012740183 0.000191032
0001b0 f6 91 63 bd 23 1b 41 bd ba 73 5a bc 45 fa d9 bd
       -0.05555912 -0.04714502 -0.013333255 -0.10643438
0001c0 aa 10 89 bc 41 f7 59 bd d7 93 6a bc e3 b4 2d bd
       -0.016731579 -0.053214315 -0.014317474 -0.042408835
0001d0 c8 52 30 3c 64 b2 1f 3d a8 f1 7a bb 1d 11 c4 bc
       0.010761924 0.038988486 -0.003829101 -0.023933941

9.weight f4 [84, 120]
000000 a2 35 e8 3b a2 0d a4 3e b0 f4 8e 3e a8 fb c4 be
       0.0070864717 0.3204165 0.27921057 -0.38473248
000010 5a 41 bc 3e 22 b4 f8 3d b0 13 27 3e b0 a2 12 be
       0.3676861 0.121437326 0.16316104 -0.14319873
000020 b2 11 0b 3e 5d d1 48 be c0 8a 59 be 14 b2 0b be
       0.13580969 -0.19611116 -0.21244335 -0.1364215
000030 ed 26 bf bd 94 56 38 be a9 09 cc 3d 84 c9 7a b8
       -0.093335964 -0.18001777 0.0996278 -5.979232e-05
000040 d6 ad 34 3e 0c 44 30 be 68 89 43 be 2a eb 89 3e
       0.17644438 -0.17213458 -0.19095385 0.26937228
000050 8a 6f f8 3d 59 68 be 3e 2d 90 d1 3e c9 64 06 be
       0.121306494 0.37188986 0.4093031 -0.13124384
000060 4e 46 16 3e 6e 68 5c 3e 78 52 59 3d d9 64 30 be
       0.14675257 0.21524212 0.053057164 -0.1722597
000070 04 4b 05 3e c6 ea af bc 1f 4c bf be 42 1a 6e be
       0.13016897 -0.021474253 -0.37362763 -0.23252204
000080 2d 3d 30 3d 78 85 9e bd 46 80 da 3c 4b 54 dd 3d
       0.04302709 -0.07740301 0.026672494 0.10807093
000090 55 36 ea bd 5f f0 d7 bc 99 81 1e bd 4a 8e aa bc
       -0.11436144 -0.026359735 -0.038697813 -0.020819802
0000a0 40 4d 28 3e 14 03 9e 3c 9d 4c 00 be 35 be 8a be
       0.16435719 0.019288577 -0.12529226 -0.2709824
0000b0 10 f0 70 3e 70 35 2c be 99 23 9d be 87 e9 66 3e
       0.23529077 -0.1681726 -0.3069122 0.22550021
0000c0 8c 2a 35 3e 4a 18 93 be 56 df 79 be 1b 3d 27 be
       0.17692012 -0.2872947 -0.24401602 -0.16331904
0000d0 37 51 12 be b9 d2 7f 3e 68 44 36 3e f6 c3 5b 3e
       -0.14288794 0.24982728 0.17799532 0.21461472
0000e0 a1 43 ca 3e 8a e6 29 3e 41 48 ae 3d 16 89 0f 3e
       0.39504722 0.1659185 0.08509875 0.14017138
0000f0 ec 82 7b bd 5b d6 d5 3d f1 ae c0 be c6 4b 4b be
       -0.061404154 0.10441276 -0.3763347 -0.19853124
000100 8b 3b 1c 3e 9c 31 ee bd ff 1b c9 3d b1 ff 65 3d
       0.15257089 -0.11630556 0.09819793 0.05615205
000110 b6 a6 e6 3d 88 a8 b0 3e 9d 66 8e 3e d5 09 90 3e
       0.11262266 0.3450358 0.27812663 0.281325
000120 e9 ba 46 bc 14 8f 8b bb 3b 66 b4 bd 9f e8 17 be
       -0.012129524 -0.0042589996 -0.088085614 -0.14834832
000130 61 de f4 bc aa 49 99 bd dc e6 9c be f4 c0 29 be
       -0.029891195 -0.074847534 -0.30644882 -0.16577512
000140 93 26 b7 3d c5 32 cf be 77 3e 31 bd 84 ab 71 be
       0.08942904 -0.40468422 -0.04327246 -0.23600584
000150 ff 13 e7 bd 06 cc d0 bd db 90 2d be 86 c5 83 3e
       -0.11283111 -0.101951644 -0.16949789 0.25736636
000160 df 04 5f be 14 06 4c be 77 22 ef 3d ed bc 44 bd
       -0.21779202 -0.19924194 0.116764955 -0.048031736
000170 60 75 81 bd 48 93 14 3e 62 05 97 3e c6 67 96 be
       -0.06321216 0.14509308 0.29496294 -0.29376048
000180 58 c7 38 be 50 54 ba bd fb e4 82 be d2 1f 51 be
       -0.18044794 -0.090981126 -0.25565323 -0.20422295
000190 e7 ea 09 3e 23 1f 8a be b5 24 c9 bc f0 cf 30 3e
       0.13468514 -0.2697688 -0.024553636 0.17266822
0001a0 a2 8a 8e bd ee 25 35 3e 88 3a bd 3e a4 90 38 3e
       -0.06960036 0.1769025 0.36958718 0.18023926
0001b0 40 a3 ab 3d 04 1c c7 3d 8b bb 51 be 33 98 66 be
       0.08380747 0.097221404 -0.20481698 -0.22518997
0001c0 9d 06 e4 3d ab 9d 30 bc 9a 71 0f 3e 6d 38 82 be
       0.11134074 -0.0107797785 0.1400818 -0.25433674
0001d0 61 fe 44 3e 5f ac 68 be 8e 98 c3 bd 64 80 37 3e
       0.19237663 -0.22722004 -0.09550582 0.17920071
0001e0 d2 ec c3 3d 4b a6 93 be a6 09 a0 be d6 f0 33 3d
       0.09566654 -0.2883781 -0.3125736 0.04393085
0001f0 8c a6 04 3c 3c 29 34 be f4 92 5e be 08 21 08 be
       0.0080963485 -0.17593855 -0.21735746 -0.1329385
000200 d4 84 45 3d c8 47 cc 3c 35 e5 03 bf 6b 65 8c bd
       0.048222378 0.024936572 -0.5152162 -0.068552814
000210 3d 00 10 be a7 f7 3f 3e 7a f0 34 3d 56 50 a2 3e
       -0.14062591 0.18746816 0.04417465 0.31701916
000220 bc 73 cf 3d f0 b0 2e bd 48 8d c3 3e 19 7c 6f 3e
       0.101294965 -0.04264921 0.38193727 0.23387183
000230 1e 37 0e 3e f7 1d a8 3b a9 40 95 3d 35 43 94 be
       0.13888213 0.005130525 0.072877236 -0.28957525
000240 28 c0 11 bd 5f b6 fd 3e 87 e2 7c be a6 7b 8a 3e
       -0.035583645 0.495532 -0.24695788 0.2704746
000250 05 64 8e be 2b 41 4e bd d5 69 94 bd 79 21 6c be
       -0.27810684 -0.050355118 -0.07246748 -0.23059644
000260 95 3b bc be 20 fc 8e bd 8b 0d 3a 3e c1 19 57 3e
       -0.36764207 -0.06981683 0.18169229 0.21005918
000270 63 39 53 3d 5e 36 40 3d 72 78 4b bd 4e c8 89 3d
       0.0515684 0.04692685 -0.049675412 0.06727658
000280 ef 1a 6c be d9 3b a6 3d 4d d6 e4 3d 24 ff e8 3d
       -0.2305715 0.08116884 0.11173687 0.11376789
000290 15 0f 8d be eb bc 1b 3e 38 25 ac be 4b f4 e5 3b
       -0.2755057 0.15208785 -0.33622146 0.0070176474
0002a0 2a 90 0a bf 33 3b 9d be 68 e5 d2 3e b5 74 8e 3e
       -0.54126227 -0.30709228 0.41190648 0.27823415
0002b0 0b b3 a4 3e 56 da 61 3e 00 63 4a be 99 15 0c 3e
       0.3216785 0.22055945 -0.19764328 0.13680114
0002c0 bd 9e bb 3c 65 00 b9 be 21 08 13 3e 64 44 04 bf
       0.02290284 -0.36133114 0.1435857 -0.51666856
0002d0 8c 7c 90 3e d1 57 b7 3c 32 b7 a9 bd d0 e3 44 be
       0.28220022 0.022380741 -0.08286895 -0.19227529
0002e0 b4 73 44 be c2 ff e1 bd f4 a1 65 be 3f 3a f0 3e
       -0.19184762 -0.1103511 -0.22425061 0.46919438
0002f0 70 c3 77 be 56 9b 1a be 51 67 24 3e 18 77 93 be
       -0.24195647 -0.15098318 0.16055037 -0.288018
000300 ba d3 8a 3d b0 17 c2 be dc 4c 0d bd 20 bd ba 3e
       0.06778665 -0.37908697 -0.034497127 0.36472416
000310 c6 0a b0 bc 3b 3a 58 be c7 e0 3d 3e 6d c9 02 3f
       -0.021489512 -0.21115963 0.18542777 0.510886
000320 91 ea e5 3c 4c 48 55 3e bb 86 09 3f 86 6c 3b 3e
       0.028065952 0.2082836 0.5372121 0.18303117
000330 6d 32 7e 3e e9 5e a1 be b0 e2 d0 3c 94 9b b0 3d
       0.24823923 -0.31517723 0.025498718 0.08623424
000340 59 e6 6e bd c4 2a be be c9 d6 c0 3d 16 36 13 be
       -0.058325145 -0.37142003 0.09415967 -0.14376101
000350 17 9d e7 bd 13 cb 09 3e 38 ef f6 bd 97 7a aa be
       -0.113092594 0.13456373 -0.12057346 -0.33296654
000360 8f 55 17 be 44 2e aa be 72 84 7a be dd b1 87 bd
       -0.14778732 -0.33238423 -0.24464586 -0.066257216
000370 ef 1d d7 3d e8 56 9c 3e 91 48 15 3d 4f 1c 3b be
       0.10503756 0.30535054 0.036446158 -0.18272518
000380 76 da 84 3e 12 57 4f bd ad 6a dd 3e 9a d2 79 3d
       0.25947922 -0.050620146 0.4324545 0.06099186
000390 44 07 47 3e a6 7b 1a 3f b5 8e 20 be 98 a4 f9 3d
       0.19436365 0.6034492 -0.15679438 0.12189597
0003a0 a3 4b 18 bb 9f 2f bc 3e 0c b6 ea 3c 3d 91 c9 bd
       -0.0023238442 0.36755082 0.02865126 -0.09842155
0003b0 43 2c c4 3c aa 24 90 be 6a b8 8c 3e c0 ee df bd
       0.023946887 -0.28152972 0.27484447 -0.1093421
0003c0 44 4f b8 3c 59 cb ad 3c f7 34 89 3e 23 55 92 be
       0.022498734 0.021215128 0.2679822 -0.2858058
0003d0 c7 36 8b 3e 63 cf b7 bd 1f a9 3f 3e 2c ea 3c be
       0.2719023 -0.08975103 0.18716858 -0.18448704
0003e0 2e a4 fd bd b3 dd cf be 1b 8e 22 3e 0b da 7f bd
       -0.123848304 -0.4059883 0.15874521 -0.0624638
0003f0 e9 a3 0f be 45 87 e8 bd d5 18 c0 3d 70 89 86 be
       -0.1402737 -0.113539256 0.09379736 -0.26276731

9.bias f4 [84]
000000 08 92 c6 bd 09 fc 4f bc 6b 4e 08 be ec 4b 62 bc
       -0.09695822 -0.012694367 -0.13311164 -0.0138120465
000010 a6 43 d7 bd 55 d4 c2 bc bc aa db 3b 41 31 c8 3d
       -0.1051095 -0.023782888 0.0067037027 0.097750194
000020 4e b5 f5 3c c7 d8 1f 3d 00 89 d7 bc cd d6 61 3d
       0.02999368 0.039025094 -0.026310444 0.05513649
000030 d5 11 a8 3d cb 5d c7 3c a9 28 e7 bc 01 13 1c 3d
       0.08206526 0.024336716 -0.02821763 0.03810406
000040 03 d5 42 3d c1 fa 1e bc 05 41 11 be ab e7 48 3c
       0.047566425 -0.009703339 -0.14184959 0.012262265
000050 67 e2 e1 3c 43 da bf bc df cc 78 bd ae 0b 0c bc
       0.027573777 -0.023419505 -0.060742255 -0.0085477065
000060 9f db ca 3d 9d 9a 2a 3d 7f ee 92 3d 99 9a 3b bb
       0.09905171 0.041651357 0.07174396 -0.0028626083
000070 a2 fe 97 bd 8e 32 ef bd 28 d0 fc bd 44 f3 1a bd
       -0.07421614 -0.116795644 -0.1234439 -0.037829652
000080 b9 44 cb bd 9c 8a fc bc a6 6a 9f bd df 12 80 bd
       -0.09925217 -0.030827813 -0.077840135 -0.062535994
000090 94 2c cd bd 9c ed a2 bd a2 25 5c 3d ed 71 9d bd
       -0.10018268 -0.07955477 0.053746827 -0.07687745
0000a0 cf b0 88 bd a4 dc c5 3c 58 bc 6f bd 14 03 05 3d
       -0.066743486 0.024153061 -0.058529228 0.03247364
0000b0 63 6c 88 bd bc f3 93 3a e5 46 7b 3c 87 22 ab bc
       -0.06661298 0.0011287848 0.015336727 -0.020890487
0000c0 f1 f3 a0 bd e0 e0 0d 3d 0a 2e f5 3c 36 a6 22 bb
       -0.07859028 0.034638286 0.02992918 -0.0024818308
0000d0 a7 a0 ca bd ad 7e bb bc 77 06 fd bd 79 06 45 3d
       -0.09893923 -0.022887552 -0.12354749 0.048101876
0000e0 33 c7 ba bd 37 e1 c4 bd e5 e1 e3 3c 98 ab 78 3b
       -0.091200255 -0.09613269 0.027817676 0.0037944075
0000f0 c2 74 b5 bd 65 09 21 bd cc 92 45 bd cd 34 07 bd
       -0.088601604 -0.0393156 -0.0482357 -0.03300934
000100 72 76 b8 bd ef ad 12 3d 74 30 d7 3c 33 1a 4a 3d
       -0.09006967 0.035810407 0.026268221 0.04934139
000110 e8 fa ff 3c 4d da 3a bc aa 3f f0 bd 15 f0 c2 3d
       0.031247571 -0.011404586 -0.11730893 0.09518448
000120 95 85 35 3d e6 1a 32 bd bd 6e 08 3d ff 94 9b 3d
       0.044316847 -0.043482684 0.033308733 0.07596778
000130 26 6c 90 bd 3a 7d cb bd 8a d0 81 bc 17 99 4b bd
       -0.07051878 -0.099359944 -0.01584651 -0.049706545
000140 26 4e f0 bd e2 11 02 bd 1f 1f 5f 3b af f3 9f 3c
       -0.11733656 -0.031755336 0.003404565 0.019525377

11.weight f4 [10, 84]
000000 2c 1c ca 3e 1e fc 8d bf af 03 a7 3e a9 bc 8f be
       0.39474618 -1.1092565 0.32619998 -0.28073624
000010 2a f6 15 3f 3e 03 74 3e 0d 97 88 be 43 66 d3 3e
       0.5857874 0.23829362 -0.26677743 0.41288957
000020 3c 64 5b be a8 d5 4a 3f af 80 35 3f 26 af 2d 3f
       -0.21424955 0.79232264 0.7089948 0.6784538
000030 71 86 94 be 2d e9 5e 3e c2 c2 64 3e 0d 49 de be
       -0.2900882 0.21768637 0.22339919 -0.43415108
000040 85 36 4c be 47 69 8a bf b6 47 cb bd 75 0b ce be
       -0.19942673 -1.0813378 -0.09925787 -0.40243116
000050 48 c4 a5 be b4 55 5c be 34 44 6e 3f 59 80 a6 3e
       -0.32376313 -0.21517068 0.9307282 0.32519796
000060 1f 6f db 3e 20 87 63 3a 64 85 ad be fb 88 8d bf
       0.42858216 0.0008679498 -0.3389083 -1.1057428
000070 5d 38 88 3f f4 40 0a bf 00 5c b4 be 67 2e 80 be
       1.0642201 -0.5400536 -0.3522644 -0.25035402
000080 de 60 ad 3d 39 7e b4 be 23 41 15 be 74 3b 70 be
       0.084657416 -0.3525255 -0.14575629 -0.2346018
000090 14 24 d5 3e 2a d3 1f 3f 03 7c 0e 3f 63 66 50 bf
       0.41629088 0.62431586 0.55657977 -0.8140623
0000a0 d1 8c 1e 3f d9 f5 81 be 14 51 75 3e ca 0a 0c 3f
       0.6193362 -0.2538288 0.2395671 0.5470396
0000b0 9f 1d 00 3e 63 db a8 3e 0d 87 26 3e df 3c 81 3d
       0.125113 0.3297988 0.16262455 0.06310438
0000c0 d8 a1 90 3e 17 3d 26 bf 93 0a 1c bf b7 0b 36 3f
       0.28248477 -0.64936966 -0.60953635 0.71111625
0000d0 72 2a 5e 3f e3 04 15 bf 58 ea 3d 3e f1 4f 05 3f
       0.86783516 -0.5821058 0.18546426 0.52075106
0000e0 7b f9 3f be 5c 87 12 be 68 1d be be 26 b2 2c be
       -0.18747513 -0.14309448 -0.3713181 -0.16864833
0000f0 93 b7 fe be 69 e0 00 bf e9 2c 1e 3e 65 06 37 bf
       -0.4974943 -0.5034242 0.1544682 -0.7149413
000100 67 1a 76 bf ee c6 13 3f a9 66 81 3e 2b c6 36 3f
       -0.96134037 0.5772542 0.25273636 0.7139613
000110 1b 10 b5 be cd 72 0d bf c1 8a 93 be ae 5e f3 3e
       -0.3536385 -0.552533 -0.28816798 0.47533172
000120 48 ee 9f be ba db 08 be f7 1f 4e bf 93 d1 1c bf
       -0.31236482 -0.13365069 -0.80517524 -0.61257285
000130 0d f6 6a 3e 54 d2 10 3f f7 a0 2d bf 31 68 87 3f
       0.22945423 0.56570935 -0.6782374 1.0578672
000140 4e 5c 86 3e 79 0a 2a 3e e4 3e 01 bf f4 ee 31 3e
       0.26242298 0.16605558 -0.5048659 0.1737631
000150 e1 7a 65 bf 2a d2 14 3f 3b 80 9a be 51 d6 21 3f
       -0.89640623 0.58133185 -0.30175957 0.63217646
000160 97 22 4a 3e f5 08 36 be 3d 7c 0b bf eb e6 e2 be
       0.19739757 -0.17776854 -0.5448645 -0.443168
000170 ed ba b0 3e c5 81 f9 be 34 ad 77 3e 13 26 82 bd
       0.34517613 -0.4873182 0.24187165 -0.06354918
000180 2d 60 63 3e de a9 d6 be 6b 8d d2 3e 01 89 2a 3f
       0.22204657 -0.41926473 0.41123518 0.666153
000190 c4 4e f1 be f5 ed 80 bf 1c 4f 9c be 06 1f 96 be
       -0.47130406 -1.0072619 -0.30529106 -0.29320544
0001a0 83 b7 b0 be bd 0d ba 3d 4c 15 43 bf 69 85 a0 bd
       -0.34515008 0.090846516 -0.7620437 -0.07837946
0001b0 6f cf 28 bf 7b 7e bd be fe 49 99 be c8 5b a0 3f
       -0.6594152 -0.3701056 -0.29939264 1.252801
0001c0 4e d9 0d bf 4d 83 54 3f b9 f1 d0 3e b5 46 c5 be
       -0.55409706 0.8301285 0.4080942 -0.38530508
0001d0 64 9a 1d bf be fd ab 3d 98 d1 96 3f 77 84 36 3f
       -0.61563706 0.08398007 1.1782713 0.71295875
0001e0 9e fc fb 3d c5 9e 4b bf c5 73 8f 3d c4 f7 27 3f
       0.12304042 -0.7953914 0.07004503 0.65612435
0001f0 da c9 d6 be 4b f1 e4 be ee bf a2 bc a7 41 68 bf
       -0.41950876 -0.44715342 -0.01986691 -0.9072518
000200 e8 bb 12 bd 17 16 a1 be 6e a0 1d be a4 a5 b9 3e
       -0.035823733 -0.31462166 -0.1539323 0.36259186
000210 59 f1 9e 3c 00 0d 5b 3e 93 e6 19 3f 62 e8 0e bf
       0.019402193 0.21391678 0.60117453 -0.5582334
000220 5c a4 28 be 32 44 d5 3e a7 7a 85 3e 67 aa 1f bf
       -0.16468948 0.4165359 0.2607014 -0.6236939
000230 61 05 62 3e 9f 64 b4 3f 76 28 33 be 6e 6b 3e 3f
       0.22072364 1.4093207 -0.17495903 0.74382675
000240 98 5b a1 3f 0a 59 68 3f 34 8d 6b be a0 4a 52 3f
       1.2606077 0.9076086 -0.23003083 0.8214512
000250 2e 02 4f 3e 3f bf 34 bd f9 f4 28 bf 82 db 18 3f
       0.20215675 -0.0441277 -0.659988 0.5970994
000260 ae 1d 67 3f 43 9a 0b be 98 13 5d bf a0 6c 34 bf
       0.9027966 -0.13633065 -0.8635802 -0.7047825
000270 45 c0 0d bf ff ed 38 bf 0b 54 43 3f 34 7c 5d be
       -0.55371505 -0.72238153 0.76300114 -0.21629411
000280 0c c2 8f be 4d ed 01 3f c5 ba ef 3e a1 53 22 bd
       -0.28077734 0.5075272 0.4682218 -0.039630536
000290 5d a3 86 be 3c 76 7f be 82 b9 fb 3d 30 30 04 3e
       -0.2629651 -0.24947447 0.12291242 0.12909007
0002a0 e5 81 e0 be af b8 08 bf 47 94 f2 be af 8a 6a bd
       -0.43849102 -0.53406805 -0.47378752 -0.057261165
0002b0 9a d5 16 3d c3 2e 91 bd 1c 52 fb 3d 3a 64 ad be
       0.0368248 -0.07088997 0.122715205 -0.3386553
0002c0 13 f1 c6 3e 87 ce 78 3e c6 77 60 3f 56 62 39 3f
       0.388558 0.24297534 0.8768276 0.72415674
0002d0 fb 30 f6 be 95 f9 ae be 91 c6 20 3f dd 48 89 3f
       -0.48084244 -0.3417479 0.6280299 1.0725361
0002e0 4d 55 44 3f cb 91 e0 be 29 b3 60 be 5e 13 a7 3f
       0.7669266 -0.4386123 -0.21943344 1.3052785
0002f0 90 7e 6c bf eb 9d 6a 3d 53 f0 3f 3e d4 be be 3d
       -0.9238062 0.05727951 0.1874402 0.09313741
000300 58 88 3c 3f a3 9a 2b be ac c1 f5 bc 88 14 b1 be
       0.73645544 -0.16758208 -0.029999577 -0.34585977
000310 2d 96 19 bf f7 30 73 3f 62 5a 18 3f 86 75 b1 be
       -0.59994775 0.9499659 0.59512913 -0.34659976
000320 be f5 1b 3d 60 05 8e bf a5 f1 82 be b1 d4 4f 3f
       0.038076155 -1.109539 -0.25574985 0.81183916
000330 5f 6c 37 be 76 a9 06 3c 8a aa 91 bf 88 4e 2e 3f
       -0.17912434 0.008219114 -1.1380169 0.6808858
000340 70 4f 2c bf 68 92 1a be 85 b5 36 3f 4a 2c b7 3e
       -0.6730871 -0.15094912 0.71370727 0.35775977
000350 ad 20 39 3e b5 24 44 bf 9e 22 20 3f 8e 90 db 3d
       0.18078871 -0.7661851 0.6255282 0.10720931
000360 e9 eb 04 bf 19 53 8b 3e 75 cd b9 3d 0c da 94 be
       -0.5192247 0.27211836 0.09072391 -0.29072607
000370 09 f0 59 be 46 8a 58 be 58 ed 00 3f 23 dc 7c 3f
       -0.21282972 -0.21146497 0.5036216 0.987734
000380 6c 23 b4 be a3 4d 30 bf c3 84 b6 3e ec df fd be
       -0.35183275 -0.68868464 0.35648164 -0.495849
000390 91 cb 18 bf 24 24 6e 3f d4 ca 92 be ec 6f a2 be
       -0.5968562 0.93023896 -0.2867037 -0.31726015
0003a0 8d 80 8b bf 06 0d f5 3d 1e 36 ea be 1e 58 21 3f
       -1.0898606 0.11965375 -0.45744413 0.6302508
0003b0 7e 78 1c be 07 0b 05 bf c5 38 05 be 85 1a 9c bf
       -0.15280339 -0.5196995 -0.13009937 -1.2195593
0003c0 bf e4 1f be a0 f7 30 3f f5 6c 03 3f a0 f4 7a be
       -0.15614603 0.69127846 0.5133813 -0.2450738
0003d0 b7 d3 4a 3f be 7b fc be 96 4f e3 3a a1 df dc be
       0.792293 -0.49313158 0.0017342444 -0.43139365
0003e0 03 ce 24 3e d8 84 3e 3e 27 49 31 3f 03 d7 44 3d
       0.16094212 0.18605363 0.69252247 0.048056614
0003f0 ce 46 89 3e a6 e1 30 3f 5e 67 a9 3e cd 9d a4 be
       0.26811832 0.6909431 0.33086675 -0.32151642

11.bias f4 [10]
000000 ef 6f 05 be 37 4d b8 3d 33 da 02 be 40 a7 43 3e
       -0.1303098 0.089991026 -0.12778549 0.1910677
000010 e5 a3 40 bd 17 7b e4 3d d3 51 a2 bd 4c 6c c3 3c
       -0.047031302 0.1115629 -0.07925763 0.02385535
000020 5a 71 3e bc 5e 47 02 3e
       -0.011623705 0.12722537
