pro_number/LeNet.params (torch, 258955 bytes, 26 tensors)

0.weight f4 [6, 1, 5, 5]
000000 f7 b1 ae be f4 de 53 be 47 b6 b3 be 18 45 e1 be
       -0.3412015 -0.20690519 -0.35100004 -0.43998027
000010 ac 91 82 3c c3 73 73 be 76 84 1d bc 13 d0 7b bd
       0.015938602 -0.23774628 -0.009614101 -0.061477732
000020 b6 6e 95 3e df 6d 62 3f ba 32 b2 bd 31 c7 66 3e
       0.29186028 0.884489 -0.087010816 0.22536923
000030 3a ec 4e 3e 13 3a 4d 3f 04 5b d5 3e 91 e2 ed 3d
       0.20207301 0.8016674 0.41671002 0.1161548
000040 d1 d9 2d 3e 5a 38 0d 3f 87 a3 bb 3e 27 0c 75 be
       0.16977622 0.5516411 0.366482 -0.23930417
000050 7b 8e e8 bd a5 f3 0a 3f 62 72 eb 3e a5 2d 6c bd
       -0.11355301 0.5427802 0.45985705 -0.057660718
000060 29 61 7d be 6f 85 89 3c 70 4c 4a 3d 18 7a e1 be
       -0.24744095 0.016787259 0.049389303 -0.44038463
000070 03 44 dd be 84 c2 c3 3e f4 dd e8 3e 70 9b 74 be
       -0.4321595 0.3823434 0.45481837 -0.2388742
000080 16 e5 60 bf 2a 6c a8 be a1 b4 07 3f 7a a5 e0 3e
       -0.8784956 -0.32895023 0.5300999 0.4387625
000090 1b de f7 be 5c eb 6a bf 46 bf 51 bd 36 f3 f2 3e
       -0.4841164 -0.9176538 -0.051207803 0.4745118
0000a0 21 d9 ac 3e c9 39 d2 be bc 40 0e bf 4d f1 16 be
       0.33759406 -0.41059712 -0.55567527 -0.14740486
0000b0 d4 7c b1 3e 15 c5 51 3d 1d c7 36 be 3c 44 c3 be
       0.3466555 0.051213343 -0.17849393 -0.38137996
0000c0 56 f0 14 3d ba aa d4 bd 3c a5 5f 3e 12 2d 17 3e
       0.036362015 -0.10384126 0.21840376 0.14763287
0000d0 fe bd a8 3e 2b fb 56 3e 90 40 a2 3e 03 ad 51 3a
       0.32957453 0.2099425 0.31689882 0.0007998498
0000e0 7e 72 0b 3e 4e 60 7a 3d 17 09 a6 3d 1f 83 df 3e
       0.13617894 0.061127 0.081072025 0.43654725
0000f0 ed 2e 28 bf 07 98 02 bf fc 05 9e be 64 be f2 be
       -0.65696603 -0.51013225 -0.3086394 -0.47410882
000100 3c 52 72 be 9b ef 06 bf ed cb 13 bf 64 4a 1e bf
       -0.23664182 -0.5270936 -0.5773304 -0.6183226
000110 59 4c 06 bf d8 1e 1c bf c3 be c5 3e 34 0f 6f 3e
       -0.5246025 -0.60984564 0.38622102 0.23345643
000120 58 84 20 3e ea e1 3b 3e 1a a4 37 3e 3f 13 11 be
       0.15675485 0.18347898 0.17933694 -0.14167498
000130 6f 55 9d 3e 60 a6 2c 3f 76 d4 aa 3e 03 b8 04 bf
       0.30729243 0.6744137 0.3336522 -0.5184328
000140 0d 08 5d 3e 3f 06 12 3f d5 f4 b8 3d a1 62 87 bf
       0.21585102 0.5704078 0.09031073 -1.0576974
000150 81 35 da be a7 a0 05 3e e9 30 bc bd 12 63 96 bf
       -0.42618945 0.13049565 -0.09189016 -1.1748984
000160 70 b0 41 bf e9 c5 12 3f 8a 97 19 be e4 05 11 bf
       -0.7565985 0.57333237 -0.14999214 -0.56649613
000170 30 23 a5 be 0d d3 8c 3e 97 7c 04 3f 50 eb e6 be
       -0.32253408 0.2750477 0.5175261 -0.45101404
000180 7e 4c 72 3e 41 a0 a2 3e 74 60 4c 3e d8 c1 72 3e
       0.23661992 0.3176289 0.19958669 0.23706758
000190 13 a2 52 3e 16 16 08 3e 7a 45 71 3e f2 45 50 3e
       0.20569639 0.13289675 0.2356166 0.20339182
0001a0 98 61 0d 3f 7d 99 17 3e c4 73 23 3f 15 be e7 3e
       0.5522704 0.14804645 0.6384852 0.4526221
0001b0 9b d4 00 3f e7 66 ef 3e cc 4c aa be 89 4a 60 3e
       0.5032441 0.46758196 -0.33261716 0.21903433
0001c0 e8 97 99 3e db 8f 27 3e ef b4 0a bf cd e2 b7 be
       0.29998708 0.1636347 -0.5418233 -0.35915223
0001d0 2d 61 30 be 71 93 21 be 68 7b b6 be 25 94 27 bf
       -0.1722457 -0.157789 -0.35641026 -0.65460426
0001e0 c6 62 25 be f6 62 95 be df 1d c5 be b7 98 8e be
       -0.1615096 -0.29177064 -0.38499352 -0.27850887
0001f0 1b 62 bd bd 5c 91 ce 3e 98 fa dd be f9 fb 6a bf
       -0.09247228 0.40345275 -0.4335525 -0.9179073
000200 5c 0d 13 bf ca ab bf 3c ac 0e 21 3f 45 c0 30 3f
       -0.5744226 0.023397345 0.6291301 0.6904338
000210 11 dc 20 3e 21 37 90 3e df b2 08 3e 00 c9 e3 3c
       0.15708949 0.2816706 0.13349484 0.027805805
000220 06 0d 80 3f b1 88 41 3f 1c f5 e0 3e 5e 59 09 be
       1.0003974 0.755992 0.43937004 -0.13412997
000230 6e c0 0e bf ad cc b0 be 8a 90 08 3d f5 08 92 3d
       -0.55762374 -0.34531155 0.03334097 0.07130615
000240 6e 12 ac 3e f2 e7 c7 be 72 ab d7 bd b9 95 d3 be
       0.3360781 -0.39044148 -0.105307475 -0.41325167
000250 68 33 f8 bd 5f aa a0 3e
       -0.1211918 0.31379983

0.bias f4 [6]
000000 d3 92 c0 bd b7 88 0a 3e 93 64 d7 bd 20 18 19 3d
       -0.094030045 0.13528715 -0.1051723 0.037376523
000010 62 65 b1 3d 80 6f fd bc
       0.08661915 -0.030936956

1.weight f4 [6]
000000 9d f3 20 40 77 a8 09 40 56 6b 0e 40 49 12 10 40
       2.514869 2.1509073 2.2253013 2.251116
000010 83 b1 cf 3f c6 8d e6 3f
       1.6226047 1.8012016

1.bias f4 [6]
000000 40 45 93 3f f6 a3 a1 bf 9e bb cc bf 99 0a 85 bf
       1.1505508 -1.2628162 -1.5994756 -1.0393859
000010 21 c6 40 3f f4 b5 44 3f
       0.7530232 0.7684014

1.running_mean f4 [6]
000000 b5 a6 ae 42 a1 2c a8 c2 dd 48 69 c2 1c c0 04 c2
       87.3256 -84.087166 -58.321156 -33.187607
000010 99 cf 17 41 7f be 19 42
       9.488183 38.43603

1.running_var f4 [6]
000000 36 14 6b 47 8c f5 60 47 38 25 11 47 10 0f 0e 47
       60180.21 57589.547 37157.22 36367.062
000010 47 a6 28 47 44 43 c5 46
       43174.277 25249.633

4.weight f4 [16, 6, 5, 5]
000000 4d 57 21 3d 09 b7 1c 3e 6e 13 02 3e 7f c1 5e bd
       0.039389897 0.15304197 0.12702724 -0.05438375
000010 64 7d 5a bc 0e 13 a9 bd 1f 0f 97 3d 40 01 22 3c
       -0.0133355595 -0.082555875 0.07375931 0.009887993
000020 8f db 61 bd d4 6b c3 3c f5 ec 12 be 90 03 ce bd
       -0.055141028 0.023855127 -0.14348204 -0.10059273
000030 31 82 a3 bd 61 9a 41 3d 0e b3 57 3d f2 7d 62 be
       -0.079838164 0.047266368 0.052660994 -0.22118357
000040 39 f2 2e bd 06 79 3b be fa 27 97 bd a8 ab 1c bd
       -0.04271147 -0.18307886 -0.07380672 -0.03824964
000050 26 7a 38 be 24 b3 06 be 2f 4a 42 be 70 97 eb bd
       -0.18015346 -0.13154274 -0.18973611 -0.11503494
000060 56 6f dc bd 2e 20 63 3d b3 5c 05 3d 55 2d 34 3e
       -0.10763423 0.05545061 0.032559108 0.17595418
000070 08 b2 6b 3d 99 39 2a bd 28 3c 67 3e 87 12 99 3e
       0.05754283 -0.041558836 0.22581542 0.29896948
000080 5b 74 9d 3e 63 ee 3c 3e da a8 d4 3d 72 5b 35 3e
       0.30752835 0.18450312 0.103837684 0.17710665
000090 e4 b4 52 3e 88 9f 36 3e cc 31 53 ba f6 df b1 bc
       0.20576817 0.17834294 -0.00080564315 -0.021713238
0000a0 24 4e df bc 45 da 5d be 57 61 e3 bc b3 ac b2 bd
       -0.02725894 -0.21665294 -0.027756376 -0.08724346
0000b0 58 44 a0 be 27 8e f5 bd 83 61 57 be 52 ec 7a be
       -0.31302142 -0.11990004 -0.21033292 -0.24504212
0000c0 f5 8f f3 bd 85 3f 50 be c4 48 17 bd 80 ce 07 be
       -0.11892692 -0.20336731 -0.03693463 -0.13262367
0000d0 94 f6 16 be de ba 0c be c4 79 98 bd b7 4c cd 3d
       -0.147425 -0.13743159 -0.074451 0.10024398
0000e0 19 31 01 be 17 a1 86 bd a2 bc 16 be 08 6a 00 bd
       -0.12616386 -0.06573694 -0.14720395 -0.03135112
0000f0 c2 ca 9a 3d 1f 29 fc 3d 53 00 03 3e 3f d6 6f 3e
       0.07558204 0.12312531 0.12793092 0.23421572
000100 4b a0 d5 3c c9 7d 1e 3e 9a d7 f0 3d a2 00 13 3d
       0.02607741 0.1547767 0.11759873 0.035889275
000110 ec 14 24 3e d1 1c 9a 3e 48 d4 9d 3d 58 0e 07 3e
       0.16023606 0.3010011 0.07706505 0.13189065
000120 68 1f 40 3d 92 df 22 3e cd d6 7c 3e 90 f2 84 bd
       0.04690495 0.15905598 0.24691315 -0.064915776
000130 5c 25 24 be c7 f1 1d bd c5 8b e8 3c 44 8e e1 3c
       -0.16029876 -0.038560655 0.02838696 0.027533658
000140 10 6a 3c 3d b3 8a 68 bd 39 a3 15 bc 54 b5 9f bd
       0.045999587 -0.0567729 -0.009133154 -0.077982575
000150 3c 33 9b bd cd f7 2a bd 4c 08 5c bd 65 3c 07 be
       -0.075781316 -0.041740227 -0.05371885 -0.13206632
000160 c3 f6 de 3c c2 74 89 3d c3 9f d5 bc 91 a5 28 3d
       0.027217275 0.06711723 -0.026077157 0.04117352
000170 3a 22 25 3e c1 0d 09 3e 6b ac b9 3d 9d 5a 99 bd
       0.16126338 0.13384153 0.09066089 -0.07487986
000180 94 7a aa 3d 42 90 fb 3d a8 01 ba bb 56 76 d0 3c
       0.08324161 0.12283374 -0.005676467 0.025447052
000190 6a a6 b3 3d 39 0f 95 3d 88 06 53 bc 2f 5b 9e 3c
       0.08771975 0.07278294 -0.012879975 0.01933059
0001a0 ed c8 28 3e 91 d9 be 3d 22 fb c6 3c 7e c6 b8 bc
       0.16482897 0.09318841 0.024289671 -0.022555586
0001b0 af e5 63 3d fa c7 ab bd c0 ef 0e bd f2 79 aa 3d
       0.055638965 -0.08387752 -0.034896612 0.083240405
0001c0 f6 46 39 3c 65 47 8f 3e 44 9f 6a 3d 3d 44 32 3d
       0.011308422 0.27984157 0.057280794 0.04352211
0001d0 9b 9e 27 be 50 e8 8e be 16 bd cf bd d1 3d 18 3e
       -0.16369097 -0.27911615 -0.10143487 0.14867331
0001e0 d6 6d d4 bd 4b 12 ff bd e8 13 1a 3d 71 1e ef 3c
       -0.10372512 -0.12454661 0.03761664 0.02918932
0001f0 4e 3e 9d bb 30 5f e7 3d 39 68 c1 bd cb af 06 be
       -0.004798687 0.112974524 -0.09443707 -0.13152997
000200 d9 84 c9 bd 8f 4a 2f 3d 41 96 3a 3e f7 b6 e1 3c
       -0.09839792 0.042795714 0.1822138 0.027553065
000210 0f 51 d3 3d 40 4c 27 3e ac 46 02 bd 60 c4 13 3e
       0.10318195 0.16337681 -0.03180568 0.1443038
000220 4d e8 7a bd 8f 16 8f 3d d1 80 24 3e c0 df 48 3e
       -0.061256696 0.069867246 0.16064765 0.19616604
000230 a2 5d af bc 93 f0 c8 bc d3 0e 65 bb 47 06 ea bd
       -0.021406952 -0.024528777 -0.0034951463 -0.114269786
000240 24 a5 4f bc 84 fa 06 be d5 24 c3 bd dd 22 93 3d
       -0.01267365 -0.13181502 -0.095285095 0.07184384
000250 49 c1 56 3c 4b ff 06 be c1 6f c1 3c 10 9e 45 3e
       0.013107606 -0.13183324 0.023612859 0.19298577
000260 fc 99 ed 3d 6b c4 cc 3d 4c 51 95 3d 23 2f 7c bd
       0.11601636 0.09998401 0.07290897 -0.06156839
000270 ac 18 93 3d 41 8f b9 3d e6 88 da 3d 95 7f b7 3c
       0.0718244 0.09060527 0.106706426 0.022399703
000280 79 f0 da bd 25 31 3f bd da 37 23 3d b3 5a 19 bd
       -0.10690398 -0.046677727 0.039848186 -0.037440013
000290 a8 b0 88 bd 44 02 55 be ee 3e b8 bd 84 16 42 be
       -0.066743195 -0.20801646 -0.08996378 -0.18953902
0002a0 7c ee 62 be 49 8d 08 be 70 01 50 be ee 13 18 be
       -0.22161287 -0.13335146 -0.20313048 -0.14851353
0002b0 28 3e 82 be 6c ad 0c be 49 16 1d be 0d eb 87 3d
       -0.25438046 -0.1373803 -0.15340532 0.06636629
0002c0 b2 fd 4e 3d 1e 34 17 bd 5b 56 42 3d f8 a0 ec 3d
       0.05053491 -0.036914937 0.047445636 0.1155414
0002d0 50 8a 66 bd 02 4d 86 be 0c 5f 66 be 5a 2a 3c be
       -0.05628425 -0.26230627 -0.22497195 -0.18375531
0002e0 b7 8f 86 bd 9a 12 96 bd ca 02 58 be 08 2c 1e be
       -0.0657038 -0.07327767 -0.21094814 -0.15446484
0002f0 bc ad 33 bd 66 a4 0f be 29 cc a6 bb f6 e4 aa bd
       -0.043866858 -0.14027557 -0.0050902558 -0.08344452
000300 b9 01 de 3c e7 6f e2 bb c2 6c 54 3d d5 51 0c 3e
       0.02710043 -0.0069103125 0.051861532 0.13703091
000310 30 cb a5 3e 23 a5 53 3e 3c 3b 47 3e dc df 5e 3d
       0.32381582 0.20668463 0.1945619 0.054412708
000320 fd 01 22 be 7d c8 94 3d d8 70 66 3c 55 77 db 3c
       -0.15821071 0.072648026 0.01406499 0.0267903
000330 64 36 61 3e 25 f7 ad 3d 30 2f db 3b 4e f3 57 3e
       0.21993405 0.08494405 0.006688975 0.21088907
000340 6b b7 08 3e 8b 88 5d 3e 04 e1 99 3e a8 e2 09 3e
       0.13351218 0.21634118 0.30054486 0.13465369
000350 f3 65 64 3d f0 73 cb 3c 37 34 8f 3d 3b b1 f3 3d
       0.05576129 0.024835557 0.06992381 0.118990384
000360 1f eb f5 3c bb b5 4b 3c 2d 7a 2b bc 57 68 16 bd
       0.030019341 0.012433465 -0.010466141 -0.0367206
000370 9f cd 8d bd 71 55 2f be f0 03 cb bc a4 82 50 3d
       -0.06923985 -0.17122437 -0.024782151 0.05090584
000380 66 7a 06 3d 24 8d 34 be bb 73 7b 3c 8d 8d 40 bd
       0.032831572 -0.17631966 0.0153474165 -0.047009993
000390 99 81 3a be 3b c6 35 be 18 b7 30 be 77 c3 a6 bd
       -0.182135 -0.177514 -0.17257345 -0.08142751
0003a0 3b 9d 97 bd 15 1c 36 be 66 83 99 bd 06 1e 7d 3d
       -0.07403036 -0.1778415 -0.074957654 0.06179621
0003b0 1d 8d 57 3d 8c db 16 bd 2b 3b 08 be fa e6 fc bc
       0.05262481 -0.03683047 -0.13303821 -0.030871857
0003c0 e6 55 d3 3d 1a e5 2a 3e 04 08 2b 3e 0a 21 2c 3e
       0.10319118 0.16688958 0.16702276 0.16809478
0003d0 b0 41 a9 bd 3d b8 6c 3e a7 38 55 3e a0 93 3f 3c
       -0.08264482 0.23117156 0.20822392 0.011692911
0003e0 13 53 6e 3d 1a a0 ad bd 06 ac 1c be 34 9e 97 be
       0.058184694 -0.084778026 -0.15299997 -0.29612887
0003f0 f9 69 51 be 12 57 33 be 8d 03 ff bd 3b 7b da bd
       -0.20450582 -0.17513683 -0.12451849 -0.106680356

4.bias f4 [16]
000000 8a 8d 38 bc 33 38 81 3d 27 11 0e bd b2 34 8f bd
       -0.011264214 0.06309547 -0.034684326 -0.06992473
000010 50 13 6e 3d ff 62 ac 3c 54 c7 99 bd 53 d1 91 bd
       0.058123887 0.021043299 -0.07508722 -0.071200036
000020 5c 32 9a bd ab 3e 49 bd 2e 1c 88 bd 09 6c 35 bd
       -0.075291365 -0.04913203 -0.06646 -0.044292483
000030 ec a8 2a bd 9e 3a 80 bd 1c e6 cb bc c7 a6 80 39
       -0.041665003 -0.0626118 -0.024889998 0.0002453832

5.weight f4 [16]
000000 8d 5d da 3f 23 ca e0 3f 9b d2 ca 3f 4c 36 ed 3f
       1.70598 1.7561687 1.5845522 1.8532195
000010 d7 b0 c0 3f c0 cb d6 3f 34 ee c0 3f e3 c0 fe 3f
       1.5053967 1.678093 1.5072694 1.9902614
000020 9d ce d0 3f 71 7f be 3f 11 16 b4 3f 14 6c 05 40
       1.6313053 1.4882642 1.4069234 2.0847216
000030 1a 5a 00 40 14 d9 f5 3f 65 8c e5 3f 3c b2 8e 3f
       2.0054994 1.9206872 1.793347 1.1148143

5.bias f4 [16]
000000 92 b1 d7 be ec d1 88 3e 41 e9 2a bd d0 0e 8d 3e
       -0.42127663 0.26722658 -0.041726355 0.27550364
000010 8f f0 89 3e cc ca f5 3e 66 6b 2e 3d 6e 7a b7 be
       0.26941344 0.48006284 0.042582892 -0.35835594
000020 cb 1e 08 bf 47 ec c0 3e 3b 72 6a be c8 86 93 be
       -0.53171986 0.37680265 -0.22895138 -0.28813767
000030 ad 17 02 3f f7 8c d7 be 7f ba ca 3d 62 47 9e 3e
       0.50817376 -0.42099735 0.098988526 0.30913836

5.running_mean f4 [16]
000000 7c b7 ff bc aa f2 8d bf d4 f1 14 be 2c b4 36 3f
       -0.031215422 -1.108968 -0.14545375 0.7136867
000010 81 92 90 be 1f 73 bc 3f cc 6f 90 3d 9f 7e 08 c0
       -0.28236774 1.4722632 0.070525736 -2.1327283
000020 3d b5 1f 3f a9 52 d3 3f 69 a5 9b 3f 15 14 38 40
       0.6238592 1.6509601 1.2159854 2.8762257
000030 19 c8 56 bf cf 71 1c bf 7c 58 5d 3f 4c d2 aa 3f
       -0.83899075 -0.6111116 0.8646314 1.3345428

5.running_var f4 [16]
000000 18 2d 31 3e 2a 3d 92 3e 90 a9 40 3e 60 1b 91 3e
       0.17302358 0.2856229 0.18814683 0.28341198
000010 6c 02 2b 3e ba ed 56 3e cf d8 39 3e 97 d3 54 3e
       0.16700143 0.20989123 0.18149112 0.2078384
000020 2d 19 8f 3e f2 1b 47 3e be 33 63 3e bd 09 cf 3e
       0.27948895 0.19444254 0.22187707 0.40437117
000030 a6 d2 d5 3e 51 cb 96 3e f5 8f 89 3e 57 7c 0d 3e
       0.41762275 0.29451993 0.26867643 0.13816963

9.weight f4 [120, 400]
000000 ee ef 66 3d 2a 58 42 3d 6f c1 b6 bc b2 7a 8e 3d
       0.05638116 0.04744736 -0.022309033 0.06956996
000010 d1 82 89 bc a0 ef eb bd 94 2f 9f 3c 74 d8 73 bc
       -0.016786011 -0.11520314 0.019431867 -0.014883149
000020 d8 ce a5 3d 38 e1 15 bd d5 cc 55 bd 38 1b 43 3d
       0.08096093 -0.03659174 -0.052197296 0.04763338
000030 fb 64 83 3c f0 79 72 bd 55 ab 98 3d bb 27 e7 bb
       0.016039362 -0.05919832 0.07454554 -0.007054297
000040 cc 29 25 bd ca 91 10 3e be 13 e0 bc aa dc 66 3d
       -0.040323064 0.14118114 -0.027353164 0.056362785
000050 d3 62 95 bd dd 60 e4 3d 6c 67 ae bc 95 6b c7 bb
       -0.0729424 0.11151288 -0.02128955 -0.006085823
000060 b5 d6 11 bd 31 f6 52 3d 35 5c ee 3d 6f 98 98 bd
       -0.03560515 0.051504318 0.11638681 -0.074509494
000070 28 71 09 bd 35 65 ed 3c 55 55 c4 3c aa 43 8c bd
       -0.03355518 0.028978923 0.02396647 -0.068488434
000080 77 9a af bd 6f f9 0e 3e 48 f1 1e bd 4a a7 54 bd
       -0.08574384 0.13962339 -0.038804322 -0.05191735
000090 1f 15 4d bd 3e a8 0f bb be 35 96 bd b6 73 4f 3d
       -0.05006897 -0.0021920349 -0.07334469 0.05064746
0000a0 80 4b 51 bd ec 9c 8b bd 8d b4 00 3c cc 4f b5 bd
       -0.051097393 -0.0681704 0.007855547 -0.08853111
0000b0 d2 b1 4a 3c be aa 0f be 08 7b 36 be 91 24 2a bd
       0.012371497 -0.14029977 -0.1782037 -0.04153878
0000c0 c1 fc df 3d d8 1c 5f bd 66 3c bb bd 4c d8 1c 3c
       0.10936881 -0.054470867 -0.091423795 0.009573054
0000d0 e7 b0 8a 3d dd ad 57 bd 0c 9c 9a bd d4 25 07 3d
       0.06772023 -0.052656043 -0.07549295 0.03299506
0000e0 3d 76 6a 3d 54 24 12 be 33 dc 4b bc 1d bd aa bd
       0.057241667 -0.1427167 -0.012442636 -0.08336852
0000f0 11 5a 90 3c 5d 93 a8 3d f1 c1 13 be ff 23 df 3d
       0.017621072 0.08231232 -0.14429452 0.108955376
000100 78 c2 77 bd ee fe 7e bd 55 57 aa 3d 3b ff 58 ba
       -0.060488194 -0.06225484 0.083174385 -0.00082777784
000110 ae 43 d1 3d ee a5 2c be 4c 6b 06 3d 78 fb 96 bd
       0.10217987 -0.16860172 0.03281717 -0.073721826
000120 f6 70 96 3d b5 ed 8e bd 16 35 e2 bd 45 28 4d 3a
       0.07345764 -0.06978933 -0.110452816 0.000782613
000130 b4 91 85 bd 1a 02 bb 3a ca 9a 0a 3d c6 42 e5 bd
       -0.06521931 0.0014267594 0.033839025 -0.11194377
000140 79 e4 81 bd 77 27 11 3d 3a 4e be 3c c3 99 09 3d
       -0.06342406 0.035438027 0.02323066 0.033593904
000150 8b c0 a2 bd 39 83 f7 3c 34 47 01 3e 5d 7c 92 3d
       -0.07946881 0.030213939 0.12624818 0.07152627
000160 3d f9 35 ba 19 56 b1 3a a7 bc bf 3c 1d ac 4a bd
       -0.00069417414 0.0013529687 0.023405386 -0.049480546
000170 cf df 94 3d cb 4c 8e 3d ee 7d ae 3d 0c 76 53 bd
       0.072692506 0.06948241 0.08520113 -0.05162625
000180 ff 26 5e 3d bb 9f 1a 3d 24 99 be bd 9d c2 ab 3d
       0.05423641 0.037749987 -0.09306553 0.08386729
000190 3b 0e bb 3c 27 ef 60 3d 01 1a 79 3d 6e 18 13 3d
       0.022833934 0.054915573 0.060815815 0.03591197
0001a0 50 1c da bd 33 9c 10 bd 3f 40 81 3d 2a 43 fc 3d
       -0.106499314 -0.035305213 0.06311082 0.12317498
0001b0 ba 97 10 be 7c 68 74 bc 89 94 f0 3d af 4b c8 bd
       -0.14120379 -0.014917489 0.11747081 -0.097800605
0001c0 de 99 9b bd 5d 27 1b bd bd 8e bc bc 9e b3 15 3e
       -0.07597707 -0.037879337 -0.023017282 0.146193
0001d0 89 65 4b bd 0c 6f e8 3d 2d 6b bd 3d 51 39 04 be
       -0.04965738 0.113493055 0.09248958 -0.1291249
0001e0 2c 40 d5 3d 40 2b ef 3d 85 fa 31 be 14 37 0a bc
       0.104126304 0.11678171 -0.17380722 -0.008435983
0001f0 59 d3 a1 bd 55 f1 23 3d eb 15 a9 bd c2 6d 57 bd
       -0.079016395 0.040025074 -0.08256134 -0.052594908
000200 40 96 11 3d 3e 18 90 3d d3 bb 0a be 56 11 94 bc
       0.03554368 0.07035874 -0.13548212 -0.018074673
000210 f5 2b bb 3c 6f 50 f9 3c ca c8 c6 bd 51 d6 ab 3d
       0.022848109 0.030433862 -0.09706266 0.08390487
000220 32 95 d8 3c 46 0c fb bd 4e 14 ad 3d 50 ae 4b 3d
       0.02643833 -0.122582 0.084511384 0.049726784
000230 9f 81 c7 3d f1 32 9b bc ad 3b 05 bd aa 46 62 bd
       0.0974152 -0.01894519 -0.032527614 -0.05524317
000240 29 5b 52 3d f8 cd 46 3c 8d bf 50 bd a1 fe 05 be
       0.05135647 0.012134068 -0.050963927 -0.13085414
000250 e6 7d 03 be dd b5 b2 3d 34 30 8a bd ea d4 00 be
       -0.12840995 0.08726094 -0.06747475 -0.1258122
000260 4b 94 a6 bb 68 f8 94 bc 21 8f 9b bc ab 4c 00 bd
       -0.005083596 -0.018184856 -0.018989148 -0.031323116
000270 df 98 7b bd 34 9b a7 3a ea db 6a bb 64 fc cd bd
       -0.061425086 0.0012787343 -0.0035836645 -0.10057905
000280 2c 55 77 3d ad 88 b3 bd 36 2a 7c 3d c7 7d f8 bc
       0.06038396 -0.08766303 0.061563693 -0.030333413
000290 50 d1 0e bd 6d f0 3a 3c 31 13 f9 3c 02 c5 c9 3c
       -0.034867585 0.011409861 0.030404659 0.024630073
0002a0 0f 0e 00 3e 9a 5e 1d 3d 11 6a 94 3d 4e 57 6e bd
       0.12505363 0.038420297 0.07246793 -0.05818873
0002b0 62 fc 5d bd b8 a9 9f 3c 7e 5a 95 3d c7 37 85 bd
       -0.05419577 0.019490108 0.07292651 -0.06504779
0002c0 4e 95 90 3d 1d 8b 19 39 bc fd 83 bd 90 68 73 bd
       0.070597276 0.00014643041 -0.0644488 -0.05942589
0002d0 4e 86 34 3d a2 ee d0 bd eb 1e 80 3d e3 b4 0b be
       0.044073395 -0.102017656 0.06255897 -0.13643222
0002e0 ad 0c c2 3d 54 13 44 bd 96 16 c8 bd f0 fe 8a bd
       0.09475074 -0.047869995 -0.09769933 -0.06786907
0002f0 2d f5 03 bd 5f f2 72 3d 98 ce 70 3c 05 ac 96 bd
       -0.03221624 0.059313174 0.014697693 -0.07357029
000300 cc 84 b8 bd 37 71 2e 3d 50 3d 93 3d 3a 34 6f bd
       -0.09009704 0.04258844 0.07189429 -0.058399417
000310 cd 50 0f bd c2 cf d3 bd 0c 72 3f 3d 7f 4e e2 3d
       -0.034989167 -0.10342361 0.046739623 0.11050128
000320 20 00 78 bd 0c 7b c4 3a ae 46 fc 3d 35 63 27 3e
       -0.060546994 0.0014990284 0.123181686 0.16346438
000330 05 6d a9 3d 82 62 80 3d 08 8b 0c 3d d4 7b 86 3d
       0.08272747 0.06268789 0.034312278 0.06566587
000340 7d 35 a8 3c f5 0e 74 bd be 15 c7 bd 0a 12 91 3d
       0.020533318 -0.059584577 -0.09720944 0.07083519
000350 d3 3b 95 bd 59 c7 55 bd ce 4d a1 bd d2 5c 9c 3d
       -0.07286801 -0.052192066 -0.07876168 0.076348916
000360 f4 c3 ec 3d 3a f3 c9 3d fc 65 97 3d e8 37 d8 3a
       0.115608126 0.09860845 0.07392499 0.0016496154
000370 a1 74 0d bd c0 92 f0 3c 3b bd e7 bc c8 34 b1 bd
       -0.034535054 0.02936685 -0.028288474 -0.08652645
000380 de 37 7e bd 7a 8e c3 b9 d2 af d3 3d 4d 77 14 3d
       -0.062064998 -0.00037299452 0.103362694 0.036246587
000390 67 32 01 3d a7 b7 e6 3d 82 59 8c bd 5c a2 31 bd
       0.031542208 0.11265498 -0.0685301 -0.04336773
0003a0 28 af 3f 3d 48 59 a6 bd 92 ec 4c bd 1a b4 7e bd
       0.0467979 -0.08122498 -0.0500303 -0.062183477
0003b0 57 34 95 bd a4 ae b9 bd 68 8e e3 bd b3 08 78 3d
       -0.07285374 -0.09066513 -0.11111146 0.06055517
0003c0 64 01 b4 bd f0 a5 82 3c f7 0e a0 3c d2 5a 72 bd
       -0.08789328 0.015948266 0.019538386 -0.059168644
0003d0 e3 68 26 bd cd 8b 7f bc 30 a1 d2 bd a7 2b 38 be
       -0.04062737 -0.015597296 -0.1028465 -0.17985402
0003e0 62 b9 96 bc f1 5e da 3c 2c 82 7c 3c 3b 39 c3 bd
       -0.018398944 0.0266566 0.015411895 -0.095324
0003f0 8b b1 11 3e fa 2a 80 3d ec f4 94 bb b5 c5 ac 3c
       0.14227884 0.06258197 -0.0045457985 0.021090368

9.bias f4 [120]
000000 85 50 fd 3c 1e c1 67 3c c6 74 fa 3c 51 f0 f2 bb
       0.030922184 0.014145164 0.03057326 -0.007413902
000010 85 8a 8e bb f9 d2 03 3d 8b 20 d5 bc b1 43 47 bd
       -0.004350009 0.03218362 -0.026016494 -0.04864854
000020 62 6f cf 3c 29 3d 2f 3d 76 5f 99 bc 02 b4 3a 3d
       0.025321666 0.042782936 -0.018722277 0.045581825
000030 bb e1 bf 3c 72 35 2f bc 22 23 92 bb 5e cb 0a bc
       0.023423066 -0.010693895 -0.0044597546 -0.008471338
000040 c5 16 a5 bb 92 3e d6 39 e1 8c 04 3d 29 fb 90 3c
       -0.0050381147 0.0004086388 0.032360915 0.017697887
000050 98 44 50 bb a5 fc 3d bd 6f f6 88 3b 87 72 f4 ba
       -0.0031779166 -0.04638352 0.004179768 -0.0018649854
000060 13 7a ad 3c 78 a7 cd bc 1c 20 02 3d ef e0 1f 3c
       0.021176374 -0.02510427 0.031768903 0.009758218
000070 aa e6 cc 3c a9 8a 49 ba 5e b2 70 3b 42 d3 65 3c
       0.025012333 -0.00076882035 0.003672741 0.014027419
000080 20 d0 b9 3b 69 5f f5 bc e3 de 1d bd 97 ac 64 bc
       0.0056705624 -0.029952722 -0.03854264 -0.013957164
000090 bc 6a c7 3c 4d f9 15 3d 8e a7 34 bd c4 ac 4d bc
       0.024342887 0.036614705 -0.044105105 -0.012553398
0000a0 06 c3 53 3c ef 0e 0f 3c e9 de 0d bd 96 23 a6 3c
       0.012924915 0.008731588 -0.03463641 0.02028064
0000b0 94 79 27 3d 5a a3 4a bc 94 16 12 3b 02 8b 37 3c
       0.04088743 -0.012368048 0.002229129 0.011202576
0000c0 36 b5 ce 3c 5e 88 f6 3c db 0a ee bc 01 f4 97 3c
       0.025232892 0.030094322 -0.02905791 0.018548967
0000d0 cf 3e d9 bc 8c 36 73 3c e6 89 09 3d c7 70 01 3d
       -0.026519207 0.014844548 0.033578776 0.031601693
0000e0 c7 8b 34 bd 66 47 54 3c 5b ae ba 3c 76 54 ba 3a
       -0.044078615 0.012956476 0.022788217 0.0014215845
0000f0 98 cf da 3c 5a 30 83 3c 0e b6 a2 bc 89 fa c4 3c
       0.026710317 0.016014267 -0.019862201 0.024045246
000100 12 c5 9f bc ed be 3b 3d d6 ef 66 3c e0 77 ca bc
       -0.01950315 0.045836378 0.014095267 -0.024715364
000110 19 81 0b 3d 92 b9 45 bd 84 45 90 bc c8 52 72 3b
       0.034058664 -0.048272677 -0.017611273 0.003697561
000120 18 54 a8 3c 2e 78 28 3c e4 ec 00 bd df a9 34 bd
       0.020547912 0.010282559 -0.031475917 -0.044107314
000130 b0 7c a6 bc de b1 23 3c 1f fa 2b 3c 2b 1f f5 3c
       -0.020323128 0.009991137 0.010496645 0.029922089
000140 90 54 37 bd 0a 72 ea 3b b0 73 2c bc 85 e4 92 3a
       -0.04475838 0.007154708 -0.010525629 0.001120702
000150 44 de 1b bd ff 55 0f bd 2f 37 2d bd 05 36 e8 3b
       -0.038053766 -0.03499412 -0.042288955 0.0070865178
000160 83 7f 5a bb 29 21 9c bc 5f 4e 1e bd e7 2c fa 3b
       -0.0033340163 -0.01905878 -0.03864896 0.0076347473
000170 8c eb 8b bc 87 73 13 bb 85 5c f6 3c e5 f3 80 3c
       -0.017080091 -0.002249928 0.030073414 0.015741298
000180 2d a8 25 bd a9 7e 2e 3d 09 16 11 bd fb ca 5a bc
       -0.040443588 0.04260126 -0.035421405 -0.013354058
000190 b1 4f d3 bc 11 e6 db 3b 4b 89 d1 bb e0 3d 3e 3d
       -0.025794836 0.0067107757 -0.0063945404 0.046445727
0001a0 c3 90 84 bc a8 44 d0 bc 8c e5 e0 3c 38 84 03 3d
       -0.016182309 -0.025423363 0.027453206 0.032108516
0001b0 db 16 b0 3c 22 9d 07 bd b9 69 82 3c b9 69 b5 bc
       0.021495273 -0.033108838 0.015919553 -0.022145139
0001c0 36 f2 92 3c c4 ad b0 3c ab 9d 33 bd 28 38 96 bc
       0.01793776 0.021567233 -0.043851536 -0.018337324
0001d0 e1 49 2b 3c cd f7 3d bd eb 01 0e 3d 8c 55 7d 3c
       0.010454626 -0.0463789 0.034669798 0.0154622905

10.weight f4 [120]
000000 52 cf 8c 3f 05 96 82 3f cd 13 8d 3f dc e9 9b 3f
       1.1000769 1.0202032 1.1021668 1.2180743
000010 07 69 80 3f d8 61 86 3f 90 4b 83 3f 96 ba 8e 3f
       1.0032052 1.049861 1.0257435 1.1150692
000020 3a 8f 82 3f 65 a3 87 3f 68 4c 8a 3f 73 c8 90 3f
       1.0199959 1.0596739 1.0804567 1.1311172
000030 5a bb 8b 3f be 0c 89 3f da 9d 8e 3f ad eb 8b 3f
       1.091655 1.0707014 1.1141922 1.0931298
000040 bf 23 91 3f 11 1a 96 3f eb b1 82 3f 56 27 89 3f
       1.1339034 1.1726705 1.0210546 1.0715129
000050 e7 b3 73 3f 4e bc 8a 3f ec 24 8a 3f cb 30 80 3f
       0.95196384 1.0838716 1.0792518 1.001489
000060 61 29 8a 3f 6a 2a 90 3f 73 dc 6d 3f 42 b4 8c 3f
       1.0793878 1.1262944 0.92914504 1.099251
000070 5c c0 86 3f 01 16 81 3f fe 22 86 3f f0 03 94 3f
       1.0527453 1.008484 1.0479429 1.1563702
000080 2d 2d 9e 3f b9 5e 8f 3f 00 0f 91 3f aa 6e 97 3f
       1.2357537 1.1200782 1.1332703 1.1830647
000090 a7 7a 8d 3f fc e8 92 3f 0e a0 82 3f c6 45 93 3f
       1.1053056 1.1477351 1.0205095 1.1505668
0000a0 26 be 72 3f f4 05 87 3f 07 de 83 3f af 9d 90 3f
       0.94821393 1.0548692 1.0302132 1.1298121
0000b0 91 84 8d 3f ab 03 8d 3f 53 d4 8f 3f fa 37 80 3f
       1.1056081 1.1016744 1.1236671 1.0017083
0000c0 c1 12 96 3f 1e 78 88 3f fb 55 a5 3f c2 ad 86 3f
       1.1724473 1.0661657 1.2916864 1.0521777
0000d0 e5 e7 8f 3f 5e a9 78 3f 20 77 9d 3f 05 49 8f 3f
       1.1242644 0.97133434 1.2301979 1.1194159
0000e0 65 a6 8b 3f de f6 92 3f bb 4a 7f 3f 40 47 8e 3f
       1.0910155 1.1481588 0.99723405 1.1115494
0000f0 36 5a 81 3f 56 55 8e 3f 05 54 8f 3f 5f 75 a6 3f
       1.0105655 1.1119792 1.1197516 1.3004569
000100 48 2c 95 3f c1 8c 78 3f 4d a6 8b 3f 10 42 91 3f
       1.1654139 0.97089773 1.0910126 1.1348286
000110 20 14 78 3f bb b6 91 3f c6 cf 87 3f dd b0 9a 3f
       0.9690571 1.138389 1.0610282 1.2085224
000120 16 13 87 3f 14 7c 8f 3f a2 9c 9b 3f 32 86 8f 3f
       1.05527 1.1209741 1.2157176 1.1212828
000130 52 10 91 3f 9c 0f 99 3f 88 b9 a0 3f b8 1e 8a 3f
       1.1333106 1.1957889 1.255662 1.0790625
000140 3d 27 93 3f 3c f3 80 3f d4 2e 80 3f d1 bf 92 3f
       1.149635 1.0074229 1.0014291 1.1464788
000150 f2 07 90 3f 94 b8 91 3f 3d 4d 94 3f 16 90 98 3f
       1.1252425 1.1384454 1.1586071 1.1918972
000160 1a 73 8d 3f 30 a2 8c 3f b9 85 89 3f 29 42 7d 3f
       1.1050751 1.0986996 1.0743934 0.9892908
000170 a0 5c 84 3f 52 08 91 3f 32 f0 96 3f 13 61 82 3f
       1.0340767 1.1330664 1.1792052 1.0185875
000180 ee 13 89 3f 39 15 8d 3f d0 ca a5 3f ce cf 84 3f
       1.0709207 1.1022102 1.2952518 1.0375917
000190 3b a5 91 3f f5 c2 89 3f f2 56 9c 3f 04 32 81 3f
       1.1378549 1.0762621 1.2214034 1.0093389
0001a0 a0 30 88 3f 52 10 bc 3f ac 97 84 3f 49 6f 94 3f
       1.0639839 1.469248 1.0358787 1.1596462
0001b0 19 a8 8c 3f 8f 21 ae 3f 85 54 8c 3f 4a 7b 8f 3f
       1.0988799 1.3603991 1.0963293 1.12095
0001c0 eb 67 85 3f 6e 0e 92 3f e8 16 8c 3f 66 26 8d 3f
       1.0422338 1.1410654 1.094449 1.1027343
0001d0 0f a8 8f 3f f0 61 93 3f 57 4b 8c 3f b8 f3 7f 3f
       1.1223162 1.1514263 1.0960492 0.9998126

10.bias f4 [120]
000000 f5 bf 10 bd 77 22 f7 bc a4 5b e2 3c 5d 6a a6 3b
       -0.035339314 -0.030167801 0.027631588 0.0050785975
000010 a8 7a 1b bd 74 c3 2e bd 81 fe 97 3d 7c 39 2d bc
       -0.03795877 -0.042666867 0.0742159 -0.010572787
000020 87 7b 41 3d 9a a0 e1 3d bb ec 82 bc 0a 3b be 3c
       0.047236945 0.110169604 -0.015982023 0.023221511
000030 20 8b 93 bb 45 6d 9f 3c 4d 7b 99 bc 87 06 8e bd
       -0.004502669 0.019461283 -0.018735552 -0.06934839
000040 b9 23 06 bc 5a a7 b0 3d 42 76 b6 3c 66 29 61 bd
       -0.008187228 0.0862567 0.022273187 -0.05497112
000050 96 39 43 bd 22 3b 57 3c 75 84 7d 3c 4b 07 ea 3c
       -0.04766234 0.013136657 0.015473475 0.02856793
000060 15 8e ac bd c8 e6 c4 bc d8 6b 9f bb 7f fd 9f bc
       -0.084255375 -0.024035826 -0.004865151 -0.019530056
000070 73 49 d7 bc f4 4f 23 3d da ac 19 3c 3d 22 d3 bc
       -0.02628014 0.03987117 0.00937959 -0.025773162
000080 a0 ab 9f bc 32 96 d3 bc 3a b2 07 3d 1c 72 cc 3b
       -0.019491017 -0.025828455 0.033128954 0.006239189
000090 19 50 7d bd ac c0 9c 3a a3 31 a3 3d 6c 85 0f bd
       -0.061843965 0.0011959276 0.07968452 -0.03503935
0000a0 1d 64 89 bb d9 d1 fe ba 87 5c 6a bc 57 82 08 3d
       -0.0041928426 -0.0019441202 -0.014304287 0.033327427
0000b0 71 4a fb bc 44 61 76 bd bb 5a 43 bd a3 a5 9f bc
       -0.030675145 -0.060151353 -0.04769395 -0.019488161
0000c0 7d bb 11 bd d9 b6 99 bc 97 dc 68 3d 4d 58 d7 bc
       -0.035579193 -0.018763946 0.056850996 -0.026287222
0000d0 6d 94 aa 3d 24 aa b4 3c 72 72 b9 bd 4f 9d 50 3a
       0.08329091 0.022053786 -0.09055032 0.0007958011
0000e0 86 36 9e 3c 56 18 08 bd ac ea 42 bd 42 61 8c bd
       0.019313108 -0.033226334 -0.04758708 -0.06854488
0000f0 f7 e2 0a bd b7 35 13 bd 7e 11 91 3b 0b 2c 40 bd
       -0.033907857 -0.0359399 0.004427134 -0.046917003
000100 3a 8a bd 3c 5e 6a bd ba 3b fa e3 3c 9c b5 a9 bd
       0.0231372 -0.0014451256 0.02782928 -0.08286592
000110 75 d7 62 bd f1 bc 16 be 8e be cb 3d af be 10 3d
       -0.055381257 -0.14720513 0.09948455 0.0353381
000120 e2 bd aa bc 37 45 a3 bd 6b b2 4e 3d 23 74 75 bd
       -0.020842496 -0.07972186 0.05046312 -0.05992521
000130 56 33 55 bd d7 6f a0 bc 7f 83 b6 bc a4 dd c7 3c
       -0.05205091 -0.01958458 -0.0222795 0.024397679
000140 d7 84 bb bd a9 63 0a 3d fd f1 cb 3b f1 84 cd 3d
       -0.091561966 0.03378645 0.0062239156 0.10035122
000150 48 fd b9 3d 11 95 9b 3b 69 73 cf bd 9f d2 aa bd
       0.09081513 0.0047479947 -0.101294346 -0.08340954
000160 4a ad 67 bc 66 1b 94 3d 8a fd 66 bd c4 2d 77 bd
       -0.014140436 0.07231788 -0.056394137 -0.06034638
000170 08 40 14 bd ee 4c 6d bd 77 af 96 bd 84 04 17 bd
       -0.036193877 -0.057934694 -0.07357686 -0.03686954
000180 f3 1d c1 bd 0d e5 03 3d 3d 07 94 be 79 2d b9 bb
       -0.094295405 0.03220086 -0.28911772 -0.0056511727
000190 4e b5 52 bc 3e d5 33 3d 14 b8 f6 bc 74 cc ca b9
       -0.012860609 0.043904535 -0.030117072 -0.00038680772
0001a0 28 17 60 3c 82 75 ff 3d d1 49 3c bd c2 59 14 3d
       0.013677396 0.12473585 -0.045968834 0.036218412
0001b0 65 76 20 bd 04 76 a6 be 3d 63 0a 3e 82 2d cb 3d
       -0.03917541 -0.32511914 0.13514419 0.09920789
0001c0 9f 63 bf 3d 81 89 eb bc 11 2c 03 3d 41 52 a9 3b
       0.09345173 -0.02875209 0.032024447 0.005167276
0001d0 40 a4 c9 3d 82 3b c9 bd bc b1 8b bd aa 3e db bc
       0.09845781 -0.09825803 -0.068210095 -0.026763279

10.running_mean f4 [120]
000000 0d eb be bf f8 e6 bf bd bc 3c 94 3e 27 8f 6e bf
       -1.4915482 -0.09370226 0.28952587 -0.93187183
000010 a9 53 5d be 18 0d 7b bf 69 dd 4e bf af d5 29 bf
       -0.21613945 -0.98066854 -0.80806595 -0.6634168
000020 16 74 76 3c 7c c3 4b 3f 6d f0 1f 3e 37 4c cf be
       0.0150423255 0.7959516 0.15619059 -0.40487835
000030 48 bb a8 3f 5e d6 c6 3e 3d f6 f2 3e 1d 4a 90 bf
       1.3182154 0.38835424 0.4745349 -1.1272618
000040 20 b9 8b be a0 ef b6 3e 3b 0d 3b bf d8 ac 47 3f
       -0.27289677 0.35729694 -0.73067063 0.77998114
000050 9b f5 56 3f e6 22 1c 3f 9c 6a fe 3f 35 f7 26 3f
       0.83968514 0.6099075 1.9876285 0.6522096
000060 b3 b5 8b 3e 8b 69 21 bf a1 1f 81 3e 92 15 da 3d
       0.27287063 -0.6305167 0.25219443 0.106486455
000070 a5 e3 dc 3d 5f e0 1c 3e 80 b8 80 3f 89 0a 6b be
       0.10785607 0.15319966 1.0056305 -0.22953238
000080 87 56 73 be 90 74 7a 3f e8 d6 24 3f 18 8c 32 be
       -0.23763476 0.9783411 0.6439042 -0.17436254
000090 8a 18 87 3f d6 1a ce 3d b0 37 76 3f 52 44 15 3e
       1.0554364 0.10063712 0.9617872 0.14576843
0000a0 18 24 df be 72 9d f5 3e bc d4 e4 3e 0e ca 65 bf
       -0.43582225 0.47971684 0.44693553 -0.89761436
0000b0 c3 70 15 bf 79 2e 20 3f 6a 3d 80 bf 16 0c a4 be
       -0.58375186 0.6257091 -1.0018742 -0.3204047
0000c0 c7 5f 46 3f 30 28 32 bf ef 2f 86 3e d0 42 5a 3f
       0.77489895 -0.6959257 0.26208445 0.852582
0000d0 4d aa 30 3f 43 9b 86 3f a3 07 8d 3e b7 25 64 3e
       0.6900986 1.0516132 0.2754489 0.22280012
0000e0 fe 72 73 3f 2c 38 7a bf 67 07 30 3e f3 88 b7 3e
       0.9509734 -0.9774196 0.17190324 0.3584667
0000f0 5e b5 ef 3d ea c5 ce be ba b4 5a 3e e3 71 7d be
       0.11704515 -0.4038537 0.21358004 -0.24750476
000100 07 12 9c be 4a 4f 88 3f f6 bf de bf 07 cd ca 3e
       -0.30482504 1.0649197 -1.7402332 0.39609548
000110 ee c9 21 3f 12 88 9b bf 7d 73 f8 bf 03 06 9a 3d
       0.63198745 -1.21509 -1.9410244 0.07520678
000120 43 d8 f9 3d dd a0 bd be b3 d3 52 bf 0d 7d b2 3e
       0.12199452 -0.3703679 -0.8235428 0.3486103
000130 b3 fe 1f bf 0f 10 fd 3e 0d ad 4b 3e a9 52 54 bf
       -0.62498015 0.49426314 0.19890232 -0.8293863
000140 02 cb 11 3f 71 60 aa 3e f2 d7 89 bf 91 b5 38 3f
       0.5695039 0.33276704 -1.0769026 0.7215205
000150 1c 96 92 3f 95 7a 9e 3f 55 f1 8c bc b6 97 ce 3c
       1.145206 1.2381159 -0.01720492 0.025218826
000160 76 af 0f be 76 a8 db be 1c 6d 3c bf 82 2e c7 3f
       -0.14031777 -0.42901963 -0.7360399 1.5561068
000170 0c 39 8d bd 19 24 59 3d fb 68 f6 3d b3 3e 75 3f
       -0.068956465 0.05301294 0.12031742 0.95798796
000180 de 28 68 bf 05 31 7a 3f 66 4c 7e 3f 9e 41 e7 be
       -0.9068736 0.9773105 0.99335325 -0.4516725
000190 a5 70 3a bd 41 9c b8 3e 9d 8c 17 bd 99 94 13 3e
       -0.045517582 0.36056712 -0.036999334 0.14412154
0001a0 9b d6 ed bf 69 75 a3 3e 98 44 2d be 63 9d 70 3f
       -1.8581117 0.31925514 -0.16920698 0.93990153
0001b0 5c 45 2e bf 12 d9 9b bf 64 ab 19 3e 08 7d 98 3f
       -0.68074584 -1.217562 0.15006787 1.1913157
0001c0 56 9b cc 3d 44 dc 06 3e c7 c8 71 3f ca c3 47 be
       0.099905655 0.13169962 0.94446987 -0.19508281
0001d0 c5 82 10 3f f4 25 fa 3d 10 1b 81 3f c5 fa 31 3f
       0.5644954 0.1221427 1.0086384 0.6952327

10.running_var f4 [120]
000000 fd a8 37 3e bb bd 0a 3e d5 2a d9 3d 53 ea 42 3e
       0.17935558 0.13548939 0.10603873 0.190347
000010 3f 98 03 3e 77 05 e1 3d 9c 17 d9 3d 40 8f 2e 3e
       0.12851046 0.109873705 0.10600206 0.17046833
000020 07 14 23 3e 17 0a 81 3e 30 f0 51 3e f2 00 4e 3e
       0.15925609 0.2520301 0.2050178 0.20117548
000030 86 71 10 3e c1 c8 5a 3e 74 14 f5 3d fa b8 43 3e
       0.14105806 0.21365644 0.11966792 0.19113532
000040 1f b3 48 3e 7d c2 b3 3e 65 42 5f 3e 02 d5 0c 3e
       0.1959958 0.3510932 0.21802671 0.13753131
000050 f7 72 3d 3e 8a 09 05 3e a1 71 03 3e 2b a7 19 3e
       0.18500887 0.1299192 0.12836315 0.15005176
000060 15 c4 32 3e 13 2f 0d 3e 51 e0 14 3e e6 bd 01 3e
       0.17457612 0.13787489 0.14538695 0.12670097
000070 5d 53 0f 3e 26 bd ab 3d ff 21 0f 3e 18 15 15 3e
       0.13996644 0.083856866 0.13977812 0.14558828
000080 79 57 1a 3e 16 7d 03 3e ad c8 96 3e 2c 14 36 3e
       0.1507243 0.12840685 0.29449978 0.17781132
000090 69 b6 22 3e 99 1f 1c 3e 1e 82 2b 3e 23 a2 3a 3e
       0.15889896 0.15246429 0.16748855 0.18225913
0000a0 61 8a 4e 3e 66 51 d1 3d bd c2 48 3e bb 41 1e 3e
       0.20169975 0.10220604 0.19605537 0.15454762
0000b0 90 36 44 3e 13 b0 39 3e 72 f8 b0 3d 15 68 d5 3d
       0.19161439 0.18133573 0.08641137 0.10420243
0000c0 49 47 74 3e c8 d3 b9 3d 83 23 c5 3e 94 ef 43 3e
       0.23855318 0.09073597 0.38503656 0.1913436
0000d0 fa 3e 4e 3e 1d 60 22 3e f9 13 28 3e ce 2b 63 3e
       0.20141211 0.15856977 0.16413869 0.22184679
0000e0 61 a1 28 3e 81 4f 54 3e f1 80 00 3e 4b 76 fb 3d
       0.16467811 0.20733453 0.12549187 0.12278422
0000f0 03 aa bc 3d 00 ad 12 3e 44 62 12 3e a8 2f 55 3e
       0.09212115 0.14323807 0.14295298 0.2081896
000100 03 d8 3a 3e c4 7a 0a 3e 6b aa 00 3e 86 27 18 3e
       0.18246464 0.13523394 0.1256501 0.14858827
000110 b4 58 df 3d ea d2 06 3e f5 26 07 3e cb 58 25 3e
       0.10905591 0.13166395 0.13198455 0.16147153
000120 7d 0b 10 3e 8a ad 1d 3e 6b 25 3f 3e 83 1d 5f 3e
       0.14066882 0.15398231 0.18666618 0.21788602
000130 f9 51 14 3e 04 3d 3d 3e a8 47 db 3d 31 11 71 3e
       0.14484395 0.18480307 0.10707027 0.23541714
000140 23 34 20 3e 72 f0 05 3e 91 ea f4 3d 2b 7e 64 3e
       0.15644889 0.13080004 0.119588025 0.22313754
000150 85 5e 09 3e 27 5a 1b 3e f6 15 2c 3e c1 cc 20 3e
       0.13414963 0.15171109 0.16805252 0.15703107
000160 33 d8 2d 3e 8e bf 46 3e df 06 df 3d 45 a7 18 3e
       0.16977005 0.1940901 0.108899824 0.14907558
000170 29 05 45 3e 4a 4d 4d 3e 54 76 39 3e cb 1d 15 3e
       0.1924025 0.20049015 0.18111545 0.14562146
000180 a5 86 7e 3e af 21 0a 3e f7 4d 4e 3e db 70 f1 3d
       0.2485605 0.13489412 0.20146929 0.117891036
000190 4f 18 50 3e 52 8d 32 3e d7 2c 2e 3e 18 01 ef 3d
       0.20321773 0.17436722 0.17009293 0.116701305
0001a0 06 3a 5a 3e 3c a6 90 3e ac df 07 3e 2b 3e 33 3e
       0.21311197 0.28251827 0.13268918 0.17504184
0001b0 b1 25 30 3e f6 77 33 3e c3 7a f8 3d a8 4e 44 3e
       0.17201878 0.1752623 0.1213279 0.1917063
0001c0 dc a5 18 3e cf 8f 65 3e 6f 16 1a 3e e5 bd 27 3e
       0.1490702 0.2241814 0.1504762 0.16381033
0001d0 ff 51 37 3e ee a4 40 3e 9f 8f 29 3e 13 89 17 3e
       0.17902373 0.18812916 0.16558693 0.14798383

12.weight f4 [84, 120]
000000 b5 a8 ff bd fb 1c 3e 3b 9d 3f 70 3c b0 7d 83 bb
       -0.1248335 0.0029008973 0.014663604 -0.004012786
000010 52 89 3b 3d 0c 3f 84 3d 13 1f 13 be ba 68 c5 bd
       0.045785256 0.06457338 -0.14367323 -0.09639116
000020 78 f4 df 3d 57 cd d4 bc 8b 67 6b 3d 01 ef 8a bd
       0.109353006 -0.02597682 0.057471793 -0.067838676
000030 ad a3 76 bd 92 fc 2f 3e f5 db 10 3d 65 4f 7b 3e
       -0.060214687 0.17186192 0.035366017 0.24542005
000040 a4 23 98 bc 0c a0 a4 bd 84 be d5 bd 73 33 60 bd
       -0.018571682 -0.08038339 -0.104367286 -0.054736566
000050 ad 7c 4f 3c c4 5d 21 be 8a c8 ce 3d 9b ee 05 be
       0.012664002 -0.15758425 0.100968435 -0.13079302
000060 37 3d 6b bc 40 96 6d 3d 4f a1 f0 bd 9d 2a 9b bd
       -0.0143578565 0.058004618 -0.11749517 -0.07576487
000070 70 a0 05 be 0a f2 15 be 9f 45 9b bb b8 65 ba 3d
       -0.13049483 -0.14643112 -0.004738524 0.091014326
000080 de 68 df 3c d7 5b 85 bd 58 4a b0 3d 17 82 48 3d
       0.027271684 -0.06511658 0.0860793 0.04895219
000090 9f ac ab bc 8c e6 f0 3a 51 e7 b5 bc 19 0c 72 3d
       -0.020956336 0.0018379255 -0.022205027 0.05909357
0000a0 5b ca ef bd 8b 10 ad 3b 6d 99 02 be b1 7a 55 be
       -0.11708518 0.005281513 -0.1275384 -0.20847584
0000b0 69 79 c9 3c df 75 32 3e 25 5a dc bd 11 42 fd bd
       0.024594026 0.17427777 -0.10759381 -0.12366117
0000c0 23 92 90 3b 1b f5 07 be 72 5f fa 3d 7a ad 42 3e
       0.004411952 -0.13277094 0.12225236 0.19011489
0000d0 4a 1e 53 3e ef f2 34 be cd c6 7d bd 3d c5 69 bd
       0.20617023 -0.17670797 -0.06195717 -0.057072867
0000e0 ad 2a 8d 3d 15 86 56 3e 34 96 e2 bd bf 92 c7 bc
       0.068929054 0.20949586 -0.11063805 -0.024361966
0000f0 03 07 01 3e 30 70 de bd d9 ce ba bc fd 67 9b bd
       0.12600331 -0.10861242 -0.02280371 -0.075881936
000100 9b 6a 35 3d 00 38 35 be 46 e7 5a 3e 31 ca e6 3c
       0.04429112 -0.17697144 0.21377286 0.028172584
000110 e5 16 5f bd 84 7b 0f be 13 6c 82 3d e2 ae 99 3c
       -0.054465193 -0.14011961 0.0636827 0.018760148
000120 2c 9c 01 be 8f e9 53 3d 93 88 9b be 6f 3d 04 3e
       -0.12657231 0.05173641 -0.30377635 0.1291406
000130 30 b5 91 3d a2 e0 45 3e 20 63 46 3e c4 05 88 bd
       0.07114637 0.19323972 0.1937375 -0.06641725
000140 48 ff 5b bd b7 70 ee 3a 88 83 87 3d cc 74 1e 3e
       -0.053710252 0.0018191551 0.066168845 0.15474242
000150 2b c8 2f be ca 7e ba 3d 75 1b 10 bc 15 02 bc bc
       -0.17166202 0.09106214 -0.008795609 -0.022950212
000160 12 7c 1d bd 28 ff 4a bd c2 6b 63 3d 28 33 b4 bd
       -0.0384484 -0.049559742 0.055522688 -0.0879882
000170 bb fb 21 3d 91 2d 5d be 09 57 fa 3a 3e a5 23 3e
       0.03954671 -0.21599413 0.0019099425 0.15981004
000180 5c db d8 bc a6 b8 57 be 02 4f cd 3d 17 64 09 3c
       -0.026471786 -0.21066532 0.10024835 0.00838568
000190 1b 15 f2 bd b4 1f c9 3d b1 8f ef bd a9 4c 01 3e
       -0.11820432 0.098205 -0.11697329 0.126269
0001a0 12 19 9f bd 6e 72 e7 bd 01 72 92 3c 41 21 8e bd
       -0.07768454 -0.113011226 0.017876627 -0.069399364
0001b0 6b 8c 15 3e d5 78 2b 3d 73 6f d6 bd 10 5a d9 bd
       0.14604346 0.04186328 -0.10470476 -0.10612881
0001c0 42 9b 2e 3d 49 25 0b be c9 96 3d be ed ae 0b be
       0.042628534 -0.13588442 -0.18514551 -0.13640948
0001d0 3e 3d e7 3c 09 90 a9 bd a0 65 1e bd 54 e0 15 3b
       0.028227445 -0.08279426 -0.038671136 0.0022869306
0001e0 27 7c 66 3d c1 f3 04 3e 81 5a eb bc f8 ed 1a bd
       0.056270745 0.1298361 -0.028729679 -0.0378246
0001f0 76 cf ed bd 8f 4f b1 bd 6f a4 95 3d 98 d2 9d bd
       -0.11611836 -0.08657753 0.07306754 -0.07706183
000200 c2 1a 82 bd 88 e9 42 3d 18 84 51 3e 47 5c 40 be
       -0.0635276 0.047585994 0.20460546 -0.18785201
000210 cd 02 34 be 65 b9 90 3d 5a bd e0 bc f5 a2 65 3d
       -0.17579193 0.07066611 -0.02743404 0.05606361
000220 b7 67 a9 3c 83 11 c0 3d cc d8 d0 bd f8 72 02 be
       0.020679338 0.0937834 -0.10197601 -0.1273917
000230 a9 ab ee bd 63 3e fc 3d c3 6d 29 bd 99 24 ea 3c
       -0.11653835 0.12316587 -0.041364443 0.028581904
000240 a4 7c 17 bc 6e f9 31 bd a1 0c ee bc a4 f2 9f 3c
       -0.009246025 -0.043450765 -0.029058756 0.01952488
000250 54 59 1d bd 1e 9f b0 3d f8 0f de bd 35 48 2a 3e
       -0.038415268 0.08624099 -0.108428895 0.16629107
000260 e3 13 0c bd 45 e9 18 3e 35 23 de bd 25 12 34 ba
       -0.034198653 0.14932735 -0.10846559 -0.0006869159
000270 ef 01 b3 3b cb c8 c3 bd 39 af 4f bd 01 67 c2 3d
       0.005462877 -0.095597826 -0.050704215 0.09492303
000280 6f dc b2 3b 55 0a 58 bd 12 7e fd bd 23 6c e9 3d
       0.0054584066 -0.05274423 -0.12377562 0.113975786
000290 16 2e 02 be 1b 2a 0b 3e b2 15 1e be 3a 04 ab 3d
       -0.12712893 0.1359028 -0.15437964 0.083504155
0002a0 be 18 06 be ce c5 01 3e 00 25 3c 3e 13 ee 6c 3d
       -0.13095376 0.12673113 0.1837349 0.057844233
0002b0 ac 72 fa bd 52 86 7a bc 6d 70 90 bd 02 9c b0 3c
       -0.12228903 -0.0152908135 -0.070526935 0.021558765
0002c0 48 42 57 3d 85 6c f5 3b c3 55 c8 bd 02 16 55 bd
       0.052553445 0.007489743 -0.09781983 -0.05202294
0002d0 64 12 2e 3d aa f1 b1 bd 93 64 68 bd ba 07 34 be
       0.042498007 -0.08688672 -0.05673654 -0.17581072
0002e0 19 98 a7 3d 13 31 be 3d ce ce d4 3d 88 b3 ae 3c
       0.08183307 0.09286704 0.10391007 0.021325842
0002f0 5f fa 01 b9 37 de 81 3d f9 1e 8c 3c 34 c1 a8 3d
       -0.00012395669 0.06341212 0.017104613 0.082399756
000300 6e 13 07 be db ff 83 bd 9d 97 10 3e 0b ea 33 3e
       -0.13191006 -0.06445285 0.14120336 0.17569749
000310 4f 8d 49 3d 50 9e 2f be fd 4d 9c bd 62 77 3c 3d
       0.049207028 -0.17150235 -0.076320626 0.04601229
000320 b6 19 cd 3d 50 f5 b0 3d 8b 66 0a be 19 a4 3e 3e
       0.100146696 0.0864054 -0.1351568 0.18617286
000330 31 74 39 bd ac d3 3c be 20 67 07 be b8 5e b7 bb
       -0.045276824 -0.18440121 -0.13222933 -0.005596008
000340 67 5c 8a bc 32 68 e4 bd 09 4f 07 3e ae 03 10 3d
       -0.016889764 -0.11152686 0.13213743 0.03515976
000350 5a 83 14 be 46 17 ff 3d 68 82 95 3d 2d e7 eb bd
       -0.14503232 0.12455611 0.07300264 -0.11518703
000360 60 cf 05 3e b6 d0 b0 3d 16 0a ff bd d8 bf 0a 3e
       0.13067389 0.086335585 -0.124530956 0.13549745
000370 b9 17 3e be 7b 3b 5d 3d 14 76 b2 3d 82 30 04 3e
       -0.18563737 0.054011803 0.08713928 0.1290913
000380 0c e8 98 bd 4f 36 22 bd 89 8c 61 3d 44 55 34 3e
       -0.074661344 -0.039602574 0.055065665 0.17610651
000390 ba 47 f5 bc 98 6d 67 3b 2d 2f d4 3c 10 ec 7f 3d
       -0.029941428 0.0035313126 0.025901401 0.062480986
0003a0 0b 84 ef 3c c3 90 00 be c9 cc 38 3d e9 0d 16 be
       0.029237768 -0.12555222 0.045117173 -0.14653744
0003b0 35 8d 10 be da a4 8a 3c f3 c6 cb 3d 78 3a 0f be
       -0.14116366 0.01692431 0.09950056 -0.13987148
0003c0 09 04 8f bc f9 53 e6 bd c4 7e 62 bc f1 aa e9 3d
       -0.017457979 -0.11246485 -0.013824169 0.114095576
0003d0 ce f8 78 3d 99 5e 03 bd 07 ef dd 3d de 47 0f be
       0.060784154 -0.032072637 0.108366065 -0.13992259
0003e0 d9 3e 77 bd 27 1d 48 3d 03 0d 25 3e 27 09 58 bd
       -0.06036267 0.048855927 0.16118245 -0.052743103
0003f0 4f ac 75 3d b6 ca ad 3d b5 95 8a bd ea ba 85 3d
       0.05997878 0.0848593 -0.067668356 0.06529792

12.bias f4 [84]
000000 d1 7d 26 3c d8 12 8f 3d ed 7b 84 3d 42 93 b6 bd
       0.010161833 0.06986016 0.064689495 -0.08914806
000010 ca 63 95 bd be 03 58 bd be 7e b3 3c 38 ee 0f bc
       -0.07294424 -0.052737944 0.021911021 -0.008784823
000020 53 9d c5 bc f7 22 7f 3b 98 95 5e bd 87 b1 82 bd
       -0.02412287 0.0038930753 -0.054341882 -0.06381517
000030 e8 13 04 3d b4 83 04 3c 72 74 8c bd 19 30 11 bd
       0.032245547 0.008088041 -0.06858148 -0.03544626
000040 fa 3e 81 3a ca 7c 3b 3d e9 6c 48 bd 86 0e 59 3d
       0.0009860687 0.045773305 -0.04893199 0.052992366
000050 01 6f a7 bd bd 7c 67 3d 26 4a 04 3c ad 06 06 3d
       -0.08175469 0.056515444 0.008074319 0.03272121
000060 85 dd a8 bd f3 8f fc bc 5e 18 3e 3d 86 b1 3d bc
       -0.082453765 -0.03083036 0.046409957 -0.011577969
000070 3b 36 98 bd a6 9e b4 bc 4e 3b 61 3d 59 8c 7b 3b
       -0.07432219 -0.022048306 0.054988198 0.0038383214
000080 01 a2 53 3d eb ad 57 3d 51 45 8c 3d a8 fd 20 bc
       0.05166817 0.052656095 0.068491586 -0.009826101
000090 6f 07 1c bb ec 26 6f bd 92 df a6 3d b3 a4 a5 bc
       -0.0023808142 -0.05838673 0.081481114 -0.020220136
0000a0 66 01 1c bd 0f 0f 96 ba cd 0c 02 3c c3 20 ae bd
       -0.03808727 -0.001144858 0.007937622 -0.085023426
0000b0 10 82 91 bd 3a db 61 3d 7e 0f 5f bd 4b 2e b0 3d
       -0.071048856 0.05514071 -0.054458134 0.0860258
0000c0 f8 b9 55 3d 64 1b 3f 3d e4 33 8b bd 5e 0d 32 3d
       0.052179307 0.04665698 -0.06797007 0.04346978
0000d0 c8 34 da bb bf 4d 81 3d 64 bc b6 3d cb f0 b5 bb
       -0.006659124 0.06313657 0.089226514 -0.0055523864
0000e0 07 bc 5a bd a4 49 2b 3d 42 e8 b1 3c 9d 9f b5 bd
       -0.053401973 0.041818276 0.021717194 -0.088683344
0000f0 54 bf 3b 3d 0b cc 14 bd d6 56 46 bd d2 2f 81 3b
       0.04583676 -0.036327403 -0.048422657 0.003942468
000100 aa 41 a7 bd a8 2a 6b 3d db b3 5c 3d 22 22 a9 3d
       -0.08166821 0.057413727 0.05388246 0.082584634
000110 4f 7a 98 3d 72 d0 95 3d ef 47 fa bb ee 35 b9 bd
       0.074452035 0.073151484 -0.0076379697 -0.090434894
000120 ca ec 92 3d b3 25 b7 bd 8d f5 de bc c8 52 0f 3d
       0.0717407 -0.089427374 -0.027216697 0.034991056
000130 f8 d3 78 bd 36 77 d6 3c 12 ea 13 bd 0a 8b 89 bc
       -0.060749024 0.026179891 -0.0361119 -0.016789932
000140 42 e1 84 bd f0 ea 0b bd fd 13 76 bc 02 65 7e 3b
       -0.06488277 -0.0341596 -0.015019414 0.003881753

13.weight f4 [84]
000000 04 68 da 3f 04 4d c7 3f 6d ea cf 3f fd 2a c4 3f
       1.7062993 1.5570378 1.6243416 1.5325619
000010 32 db d4 3f 8b 1d e6 3f 15 67 d6 3f a3 d1 e3 3f
       1.6629393 1.7977766 1.6750208 1.7798351
000020 9a ca c2 3f e7 c2 ed 3f 03 53 da 3f 84 90 e2 3f
       1.5218079 1.8575104 1.7056583 1.7700353
000030 d1 1a db 3f 17 f1 d8 3f e9 c1 d2 3f e5 20 d4 3f
       1.7117559 1.6948575 1.6465427 1.6572539
000040 1a 71 d8 3f 05 41 d9 3f be ee c9 3f 8d 45 cd 3f
       1.6909516 1.6972967 1.5775983 1.603685
000050 a3 78 d9 3f 55 04 e0 3f 2d 2c c0 3f 13 06 ce 3f
       1.698994 1.7501322 1.5013481 1.6095604
000060 35 f8 d3 3f e6 db c8 3f 8f 7f cc 3f 07 7a cf 3f
       1.6560122 1.5692108 1.5976428 1.6209115
000070 01 2e cb 3f 0e 1c cc 3f 49 b0 e0 3f e1 c8 d8 3f
       1.5873414 1.5946062 1.7553798 1.6936303
000080 a3 e5 e9 3f 48 23 e3 3f 00 5b cc 3f e5 a1 db 3f
       1.8273205 1.7745142 1.5965271 1.7158781
000090 ba fd db 3f 9c e8 d3 3f f4 5c d9 3f 9c 04 dc 3f
       1.7186806 1.6555362 1.6981492 1.7188907
0000a0 d5 69 e6 3f 29 9a e1 3f 17 a2 e4 3f 6e ab d2 3f
       1.8001047 1.7625171 1.7861966 1.6458566
0000b0 80 78 df 3f 08 f3 f0 3f d4 36 d8 3f db 9e df 3f
       1.7458649 1.8824167 1.6891732 1.7470354
0000c0 81 1a d8 3f 88 d5 be 3f 2b 0b dd 3f 49 9b d2 3f
       1.6883088 1.4908915 1.7269033 1.6453639
0000d0 84 d0 ce 3f e1 86 d2 3f df 3b e2 3f c7 af ca 3f
       1.6157384 1.6447412 1.7674521 1.5834893
0000e0 07 3f d9 3f 8b 25 c3 3f d9 f0 d3 3f 88 8c e1 3f
       1.697236 1.5245832 1.6557876 1.7621012
0000f0 e6 bf c6 3f 02 c7 d2 3f 6c dc ce 3f e8 1d dd 3f
       1.5527313 1.6466982 1.6161017 1.7274752
000100 2b 58 d3 3f 05 84 da 3f 6e 95 d1 3f 24 da cf 3f
       1.6511282 1.7071539 1.6373727 1.6238446
000110 f3 11 d6 3f e5 60 d3 3f 29 4f c8 3f bb 9e d1 3f
       1.6724228 1.6513945 1.5649158 1.6376566
000120 e4 d7 de 3f 83 16 bf 3f 3d 5e d6 3f 0d 47 ce 3f
       1.7409635 1.4928745 1.6747509 1.6115433
000130 73 9c db 3f 36 e7 ce 3f 0f a0 dc 3f 64 06 d9 3f
       1.715712 1.616431 1.7236346 1.6955075
000140 e0 e8 cb 3f 3d a4 d5 3f 15 f7 cc 3f 60 c4 d6 3f
       1.5930443 1.6690747 1.6012903 1.6778679
